RNN_Features/RNN_Features_300.pth (torch, 409534 bytes, 19 tensors)

attn_vec f4 [128]
-0.43397716 1.3935125 0.9989376 1.6985617 -0.5348353 -0.5273612 0.6112721 -1.2226533
0.6424051 0.60517836 -0.6741869 0.7813241 -0.34207308 -0.03950816 -0.019656608 0.38049126
-0.6439129 0.24470365 3.0117624 -0.14391531 0.8826113 -1.2772034 -1.4020487 -0.43379682
2.0534735 -0.2222758 -0.64453816 0.488648 -0.22803119 0.5917811 0.42121306 -2.6724722
-0.12629563 0.5532084 -1.0565101 -1.190928 -0.2697136 -0.15933979 0.58935815 -0.9771759
-1.9855226 0.4624152 0.523056 0.24438265 -1.5089643 -1.3536996 -1.234842 -1.8483304
1.8033414 -0.08424771 1.2354954 1.5594437 -1.2999158 0.22566421 -0.2817916 -0.78196406
1.0461361 -0.36974266 -0.37930974 1.1217971 0.18488464 -0.38680613 -0.5891259 1.0070051
-0.06309553 -0.8593045 0.012403389 0.96992934 1.2352102 -0.46067527 -0.23262206 -0.53400624
-0.48017377 0.30957177 2.1862957 0.18570623 0.2394989 1.064784 1.3957279 0.77910125
-0.74262923 1.0865381 -0.37937674 -0.08606127 -0.034747485 0.07228588 1.4305416 1.9913608
-0.24056646 -0.4180447 1.4771178 -1.1101263 0.4014066 -0.7075069 -1.8509456 0.28634545
-0.027825326 0.031093424 0.5937964 -0.5089454 0.5005202 0.053328726 1.3945906 0.52407736
-0.07405287 -0.010911044 -0.927358 -0.43589008 -0.8629356 0.64800733 1.3578999 -0.26806086
-1.6751258 0.5799594 -0.5583189 0.24466856 0.22413445 -0.96931815 0.9288626 -0.2167492
0.46819806 0.64865613 -0.36244544 0.17054057 0.8168652 1.682207 1.387961 -0.42725316
00000000: 4132 debe 9e5e b23f 60ba 7f3f 786a d93f
00000010: f7ea 08bf 2501 07bf 547c 1c3f e77f 9cbf
00000020: a974 243f f8ec 1a3f 8397 2cbf db04 483f
00000030: 3424 afbe 4fd3 21bd e506 a1bc c0cf c23e
00000040: 7ad7 24bf 9893 7a3e b7c0 4040 895e 13be
00000050: d0f2 613f 677b a3bf 5576 b3bf 9e1a debe
00000060: 1c6c 0340 449c 63be 7400 25bf 1230 fa3e
00000070: 0281 69be f77e 173f 3da9 d73e c909 2bc0
00000080: a453 01be 119f 0d3f b93b 87bf 5470 98bf
00000090: e717 8abe f829 23be 2de0 163f 3328 7abf
000000a0: 9b25 febf afc1 ec3e ffe6 053f 723f 7a3e
000000b0: be25 c1bf 0746 adbf 4d0f 9ebf 1796 ecbf
000000c0: e4d3 e63f 108a acbd b724 9e3f da9b c73f
000000d0: a463 a6bf 8514 673e fd46 90be cc2e 48bf
000000e0: cae7 853f e94e bdbe e334 c2be 0c97 8f3f
000000f0: 6652 3d3e 740b c6be f4d0 16bf 8be5 803f
00000100: 3b38 81bd 61fb 5bbf 9637 4b3c 4a4d 783f
00000110: 5e1b 9e3f a1dd ebbe 7a34 6ebe a2b4 08bf
00000120: 56d9 f5be 3180 9e3e 45ec 0b40 c629 3e3e
00000130: 333f 753e d84a 883f 36a7 b23f 2e73 473f
00000140: f31c 3ebf ae13 8b3f ab3d c2be e440 b0bd
00000150: 6153 0ebd 9f0a 943d fd1b b73f e9e4 fe3f
00000160: 0e57 76be f409 d6be 3212 bd3f 9e18 8ebf
00000170: 2a85 cd3e 2c1f 35bf c9eb ecbf df9b 923e
00000180: f0f1 e3bc a3b7 fe3c 0a03 183f 3f4a 02bf
00000190: 1822 003f 396f 5a3d f281 b23f ef29 063f
000001a0: 08a9 97bd 3cc4 32bc 5567 6dbf fc2c dfbe
000001b0: 59e9 5cbf cfe3 253f aacf ad3f 463f 89be
000001c0: 866a d6bf 3878 143f fded 0ebf 658a 7a3e
000001d0: 8083 653e 3c25 78bf f0c9 6d3f 81f3 5dbe
000001e0: a8b7 ef3e 540e 263f 7392 b9be 30a2 2e3e
000001f0: 141e 513f 8f52 d73f b5a8 b13f edc0 dabe

input_fc.weight f4 [128, 6]
0.15362482 -0.3380198 0.26187542 0.15793663 0.271677 -0.37865555 0.29264012 -0.066368476
-0.17088117 -0.2035283 -0.24859636 -0.21739025 0.35623398 -0.14168641 -0.16041394 -0.057292763
-0.34821472 0.2360001 0.17596093 -0.2505541 -0.39617467 -0.12343722 0.35410273 -0.019008348
0.23504719 0.09473964 0.0349632 0.09443714 0.042116158 0.30089742 0.2466022 -0.16058728
-0.075744376 -0.2537929 -0.3205392 -0.30950147 0.1286243 0.18243456 0.17975117 -0.17470919
0.15470411 0.0028576306 0.0013003591 -0.012596147 -0.0476215 -0.3318572 0.048595514 0.060182497
-0.40968397 -0.00816282 0.33762342 0.026289616 0.25078455 -0.0628317 -0.3357991 0.06420393
0.38267946 0.083850086 -0.030810492 -0.2837186 0.16209486 -0.30452138 -0.23560344 -0.07418607
-0.30324054 0.34510514 -0.08812979 0.012090716 0.08529704 -0.034514233 -0.13859135 -0.18367298
-0.03656923 -0.36961904 0.30710348 0.22267799 -0.1997133 -0.14948353 0.3589065 -0.22240354
0.21847446 -0.21394709 0.34358937 -0.007936209 0.10072844 -0.29838455 -0.3049201 0.00946279
0.02709678 -0.38786072 -0.19233596 -0.20815256 -0.25435767 -0.070462435 0.05316366 0.15738308
-0.3587008 0.22290243 -0.038192715 0.19722459 -0.07211006 -0.17837912 -0.2872675 -0.3730446
-0.17811358 -0.28687337 0.38093814 -0.081172004 -0.22699875 -0.15721036 0.23622924 0.21329471
0.06662953 -0.036729988 -0.20142227 -0.14672442 -0.2429616 -0.21893279 0.3336817 -0.20587447
0.22390419 -0.35036427 -0.37830272 0.040090326 0.20983584 -0.048535794 0.1763885 -0.13204136
0.31697324 0.106735975 -0.29671413 -0.2658612 0.22519828 -0.17390442 -0.02573002 -0.3959012
-0.07562824 -0.07833733 0.3978208 0.10557024 -0.36312905 -0.1207019 -0.011271969 -0.13978922
-0.2610127 -0.12744306 -0.41012 -0.23383042 -0.007439623 0.208057 -0.23946932 -0.32469162
-0.32249963 0.20701317 0.20891663 -0.24772781 -0.16024522 0.15620312 0.20401655 -0.40079454
0.34330806 0.3132974 0.26795176 0.28317213 -0.31626835 0.009920695 0.020136446 -0.2402735
-0.331285 -0.033298455 0.032852605 -0.06954924 0.058526214 -0.20068425 -0.33050445 -0.09258292
0.34832066 0.05251515 0.22322085 0.046765562 -0.2732254 0.25527352 0.14255717 -0.16592121
0.2848496 -0.18130624 -0.2847135 0.236208 0.09813539 -0.21101864 -0.18241206 0.0026117878
0.13624552 0.08478991 0.30776912 -0.13874018 -0.15631609 -0.3971488 -0.22709247 0.24580224
0.16620491 -0.27244443 -0.31293592 0.37606335 0.32595125 0.34558228 -0.109017774 -0.27474457
0.011314008 0.02389271 0.11767887 -0.04621389 0.10528938 0.22274026 -0.39669883 0.35945147
0.22480974 -0.24977258 -0.35547718 0.28452027 0.39723364 -0.3470442 -0.26949754 -0.20443785
-0.16078591 0.29790545 -0.3687771 0.29132292 0.39563817 -0.015136595 -0.17165643 -0.15650596
-0.32716745 0.13149051 -0.24873656 0.2226804 0.0053358907 -0.31959847 0.2629498 0.27857104
-0.39151946 -0.3175161 0.05129701 0.24701265 -0.3105674 -0.36053538 0.36884466 0.15280832
-0.40461558 0.23210682 -0.24530904 -0.16547947 0.30325213 0.4043003 -0.093468465 -0.018078845
00000000: d34f 1d3e ee10 adbe 8914 863e 24ba 213e
00000010: 3f19 8b3e 24df c1be edd4 953e 32ec 87bd
00000020: 79fb 2ebe b969 50be 0b90 7ebe 8d9b 5ebe
00000030: 4d64 b63e 3e16 11be 8d43 24be d1ab 6abd
00000040: 3349 b2be 03aa 713e 1a2f 343e a148 80be
00000050: 68d7 cabe a7cc fcbd f44c b53e 65b7 9bbc
00000060: 36b0 703e db06 c23d 9335 0f3d 4268 c13d
00000070: fe81 2c3d 3a0f 9a3e 4a85 7c3e fe70 24be
00000080: de1f 9bbd 25f1 81be b71d a4be fa76 9ebe
00000090: 17b6 033e 20d0 3a3e b110 383e f7e6 32be
000000a0: c16a 1e3e 1647 3b3b d070 aa3a 1260 4ebc
000000b0: c30e 43bd 30e9 a9be 170c 473d ec81 763d
000000c0: 19c2 d1be 59bd 05bc fadc ac3e 525d d73c
000000d0: d566 803e e8ad 80bd dced abbe 5a7d 833d
000000e0: 90ee c33e 98b9 ab3d 4966 fcbc 9043 91be
000000f0: 32fc 253e 3aea 9bbe 0742 71be deee 97bd
00000100: 5842 9bbe 9fb1 b03e 647d b4bd 2318 463c
00000110: 37b0 ae3d cc5e 0dbd e4ea 0dbe c514 3cbe
00000120: 9ec9 15bd b53e bdbe ab3c 9d3e b305 643e
00000130: a581 4cbe 3612 19be 98c2 b73e c1bd 63be
00000140: c5b7 5f3e f214 5bbe f2ea af3e e006 02bc
00000150: b64a ce3d dcc5 98be 7d1e 9cbe d109 1b3c
00000160: 11fa dd3c ae95 c6be b8f3 44be f225 55be
00000170: 2b3b 82be 9c4e 90bd 23c2 593d 0829 213e
00000180: a2a7 b7be 8940 643e f76f 1cbd 3ef5 493e
00000190: 70ae 93bd 04a9 36be ba14 93be b4ff bebe
000001a0: 6863 36be 11e1 92be 530a c33e 823d a6bd
000001b0: 5c72 68be c1fb 20be 14e6 713e ee69 5a3e
000001c0: 1075 883d 2f72 16bd a441 4ebe ed3e 16be
000001d0: edca 78be eb2f 60be 54d8 aa3e c2d0 52be
000001e0: 2447 653e f262 b3be e5b0 c1be c135 243d
000001f0: 35df 563e 78cd 46bd 309f 343e da35 07be
00000200: 514a a23e 6498 da3d eaea 97be f61e 88be
00000210: 619a 663e 0014 32be c3c7 d2bc 90b3 cabe
00000220: fbe2 9abd 526f a0bd 2baf cb3e 3635 d83d
00000230: 0dec b9be 8f32 f7bd 11ae 38bc e824 0fbe
00000240: 75a3 85be 6f80 02be 40fb d1be 3e71 6fbe
00000250: 15c8 f3bb e50c 553e 7237 75be fb3d a6be
00000260: ac1e a5be 43fb 533e 3eee 553e 5cac 7dbe
00000270: 5317 24be b6f3 1f3e b7e9 503e f134 cdbe
00000280: 13c6 af3e 8468 a03e f930 893e f0fb 903e
00000290: eded a1be 698a 223c 30f5 a43c 420a 76be
000002a0: 309e a9be f663 08bd 7490 063d d56f 8ebd
000002b0: 2fb9 6f3d 2c80 4dbe e137 a9be 1d9c bdbd
000002c0: 1657 b23e 201a 573d 0294 643e 3f8d 3f3d
000002d0: 33e4 8bbe 36b3 823e 82fa 113e 40e7 29be
000002e0: cfd7 913e 58a8 39be f8c5 91be 83e0 713e
000002f0: 35fb c83d 4515 58be 3aca 3abe 872a 2b3b
00000300: f283 0b3e 55a6 ad3d ea93 9d3e e811 0ebe
00000310: 5311 20be 1657 cbbe ee8a 68be 95b3 7b3e
00000320: 9f31 2a3e d67d 8bbe 2339 a0be 608b c03e
00000330: 15e3 a63e 29f0 b03e b644 dfbd 52ab 8cbe
00000340: 645e 393c a5ba c33c 9f01 f13d c74a 3dbd
00000350: f5a1 d73d 0616 643e 1c1c cbbe 060a b83e
00000360: 8634 663e 62c4 7fbe 1b01 b6be a4ac 913e
00000370: 3562 cb3e c7af b1be 95fb 89be 2858 51be
00000380: 10a5 24be 1087 983e 5ad0 bcbe 4728 953e
00000390: 1691 ca3e 7bff 77bc b4c6 2fbe 1943 20be
000003a0: 7e82 a7be 73a5 063e ccb4 7ebe 5506 643e
000003b0: b2d8 ae3b 69a2 a3be 5ba1 863e dda0 8e3e
000003c0: 3d75 c8be 7891 a2be d01c 523d e2f0 7c3e
000003d0: b102 9fbe 1898 b8be 35d9 bc3e c979 1c3e
000003e0: c629 cfbe 69ad 6d3e 4b32 7bbe 7373 29be
000003f0: dd43 9b3e 7300 cf3e 656c bfbd 161a 94bc

input_fc.bias f4 [128]
0.01076786 -0.41223294 0.062000718 0.13065694 0.33764228 0.28244585 -0.27063024 -0.0037622573
-0.20336114 0.2642144 0.10790657 0.1674195 -0.09489524 0.24316826 -0.010187707 -0.0542789
0.3528025 0.18620475 0.27653483 0.20809953 -0.26889217 0.15021949 -0.031393234 -0.038069837
-0.09156341 -0.27054086 0.06346084 -0.06699673 -0.17317243 0.31018874 -0.31404132 -0.3151795
0.01958486 -0.28279254 -0.29062167 -0.19944671 -0.08387951 0.297848 -0.15175648 0.1154561
-0.21255775 0.37191263 0.06381303 0.14144856 0.2042795 0.27064273 -0.3671948 -0.047399774
-0.33325267 -0.2893328 0.32325864 -0.03539436 -0.29696265 -0.04806588 0.37361863 -0.105229124
0.16911793 0.13141291 0.054814603 -0.28118387 -0.059711013 0.32346484 0.35715163 0.2829353
0.34863558 -0.08473118 -0.23751323 0.069783285 -0.25153443 -0.28931484 -0.043844175 0.021945545
-0.24038857 -0.12328019 0.09026562 -0.17770268 -0.35075152 0.41013598 0.021398095 -0.05427666
0.31535092 -0.27458152 -0.005104079 0.16734546 -0.19227104 0.23118117 0.11153918 -0.049372505
0.1191678 -0.3191402 -0.33203906 -0.009968038 0.088066384 -0.30986252 -0.32245275 0.40063873
0.011637199 0.093125835 0.29221582 -0.3512518 0.19518112 0.2166889 0.18628928 -0.2653125
0.29065534 0.039354775 -0.34857672 0.1903887 0.0024923543 -0.22216713 -0.32800058 0.047338333
0.20179848 0.24772292 -0.10370264 0.08295374 0.27329022 0.15501091 -0.115131445 0.21987094
0.34495428 0.21868345 0.119288035 0.20204115 -0.20126279 -0.35329944 0.37314856 -0.080070645
00000000: ae6b 303c 3210 d3be 77f4 7d3d efca 053e
00000010: 73df ac3e be9c 903e 0c90 8abe 3490 76bb
00000020: e73d 50be 1c47 873e 1ffe dc3d 0470 2b3e
00000030: 7058 c2bd 1a01 793e 57ea 26bc 8d53 5ebd
00000040: 87a2 b43e 75ac 3e3e f995 8d3e 0b18 553e
00000050: 3cac 89be 23d3 193e 3196 00bd 1eef 1bbd
00000060: 9985 bbbd 5584 8abe c2f7 813d 9535 89bd
00000070: 1d54 31be 0fd1 9e3e 06ca a0be 355f a1be
00000080: 6e70 a03c 2fca 90be 5dcc 94be c23b 4cbe
00000090: 05c9 abbd 887f 983e 0d66 1bbe 3f74 ec3d
000000a0: bda8 59be 556b be3e 68b0 823d e4d7 103e
000000b0: a52e 513e af91 8a3e f500 bcbe 4426 42bd
000000c0: 18a0 aabe 6e23 94be 2882 a53e adf9 10bd
000000d0: 7d0b 98be bae0 44bd f14a bf3e 5e82 d7bd
000000e0: 402d 2d3e 1b91 063e 4785 603d 55f7 8fbe
000000f0: 8993 74bd 2f9d a53e 94dc b63e e5dc 903e
00000100: 5d80 b23e 8a87 adbd ab36 73be 8aea 8e3d
00000110: 1fc9 80be 1321 94be f395 33bd 25c7 b33c
00000120: 6c28 76be 537a fcbd 2edd b83d b1f7 35be
00000130: b495 b3be 58fd d13e 0f4b af3c 3451 5ebd
00000140: ad75 a13e f395 8cbe 1e40 a7bb 9c5c 2b3e
00000150: b3e2 44be c2ba 6c3e a76e e43d d33a 4abd
00000160: 3f0e f43d 5866 a3be 0601 aabe fb50 23bc
00000170: 265c b43d 4da6 9ebe 8718 a5be 8520 cd3e
00000180: f3a9 3e3c c2b8 be3d 509d 953e 47d7 b3be
00000190: 8fdd 473e b2e3 5d3e 9ec2 3e3e 0ad7 87be
000001a0: c7d0 943e 7932 213d a678 b2be 41f5 423e
000001b0: c456 233b c87f 63be b1ef a7be d7e5 413d
000001c0: 43a4 4e3e 14ab 7d3e 0d62 d4bd a7e3 a93d
000001d0: b2ec 8b3e 2ebb 1e3e 09ca ebbd d925 613e
000001e0: d99d b03e 8eee 5f3e 494d f43d e0e3 4e3e
000001f0: d517 4ebe aae3 b4be 540d bf3e 14fc a3bd

rnn.weight_ih_l0 f4 [128, 128]
0.13944238 0.015202315 0.06502439 0.02660131 -0.0550227 0.14783911 0.009934927 0.135118
0.058445204 -0.015979866 -0.034445483 0.17451485 0.111102246 0.038177866 -0.17235069 0.09260079
0.08164396 -0.057073604 -0.006468983 -0.073058225 -0.0018147797 -0.00045991686 -0.061185922 -0.20036216
-0.08705974 -0.18889852 0.1733192 0.08993096 -0.050478254 -0.30408633 -0.07582442 -0.034257762
-0.110622734 -0.32922414 -0.00069556874 -0.08726516 -0.028633941 -0.064406954 0.07070149 -0.16355549
-0.032117993 0.2279945 0.03313832 -0.07786578 0.123976804 -0.01395155 -0.034460563 0.024138587
-0.282837 -0.16859674 0.17038141 -0.031798184 -0.08106449 -0.04575482 0.15753959 -0.13553499
0.06382853 0.04766754 0.109763555 0.20692392 -0.0520651 0.10060451 -0.12408334 0.12460655
-0.06273793 0.2134341 -0.007525735 0.010241677 0.12542203 -0.09939751 -0.089632966 -0.116909616
-0.15920746 -0.22514795 0.028940748 -0.0035640686 0.14682296 0.122310475 -0.16237755 -0.23715521
0.084461704 0.1386637 -0.09088403 -0.042776205 0.109547034 0.13888179 0.2287188 -0.083990626
0.0065854616 -0.09605323 -0.024593173 0.12449541 -0.017769743 0.18423577 -0.043831125 -0.16286147
-0.02245632 0.27910244 0.14309399 0.1376994 -0.09671073 0.09101489 -0.07117587 -0.03128905
-0.01964442 -0.021222314 0.11532216 -0.016013084 0.097292796 0.08007572 -0.0029195745 -0.22382207
0.14346784 0.19332366 0.07089378 -0.20468923 -0.04795036 0.07625974 0.00011910296 0.31966704
-0.18149649 0.030587025 0.033843633 0.052450407 0.24656487 -0.104705825 -0.05674623 -0.0421039
-0.03275689 0.14929555 0.09959813 0.01949051 -0.10560057 -0.022049543 0.087110475 0.21377501
-0.07883527 -0.004580837 0.19704989 -0.06735463 0.016723271 0.035546154 -0.054790538 0.1589467
0.07829901 -0.06508117 -0.21177773 -0.072763726 0.0629562 -0.043573137 -0.061564244 0.009693059
-0.15794632 -0.16328391 0.16954936 -0.24382645 0.14580195 -0.19395345 0.13323796 0.1543745
-0.059441764 0.04599864 -0.1255912 0.13629088 -0.070279695 -0.1602708 0.14490387 0.061141472
0.17164852 -0.22363427 -0.068527795 -0.22033088 -0.09973907 -0.04149551 0.17249389 0.2378956
0.12538783 0.14447159 0.23520426 0.13058992 -0.17934525 0.1587847 -0.03426407 0.0753777
0.0482093 0.07518487 0.04141906 -0.09511792 0.030070264 0.2693512 0.029377727 -0.058873653
0.061780885 0.011386101 -0.059936196 0.14088935 -0.081708126 0.008176034 0.06509101 -0.12864292
0.027885137 -0.01040186 0.109567285 -0.05346198 -0.028974297 -0.039959963 -0.17443396 0.014423383
0.06722854 -0.14671235 -0.14640461 0.29528156 0.18403384 -0.0018425434 -0.21830589 0.06638114
-0.069311075 0.08320272 0.11862257 -0.11078912 -0.19469209 -0.09586003 -0.09795313 0.24100177
-0.17202897 0.14717086 -0.1329672 0.044572785 0.12362469 0.045832127 0.116897695 0.078448206
0.04694136 0.00042874998 -0.0047731856 0.107288875 -0.1627534 0.1806258 -0.09506043 0.0014286273
-0.071198344 0.16767368 -0.12710169 -0.053198762 0.15654197 -0.1799584 0.08407962 -0.0329141
-0.14860493 0.05005466 0.20293087 -0.04851901 0.12157677 0.11242173 0.1098721 0.14248167
00000000: fcc9 0e3e 2113 793c 822b 853d feea d93c
00000010: 7c5f 61bd 2363 173e 1bc6 223c 5f5c 0a3e
00000020: 3d64 6f3d 35e8 82bc b516 0dbd 05b4 323e
00000030: 9389 e33d 6560 1c3d b37c 30be 7ca5 bd3d
00000040: f334 a73d 03c6 69bd c3f9 d3bb 8d9f 95bd
00000050: e7dd edba ff20 f1b9 179e 7abd bd2b 4dbe
00000060: 614c b2bd 9d6e 41be 977a 313e b92d b83d
00000070: 49c2 4ebd 34b1 9bbe d549 9bbd de51 0cbd
00000080: 2c8e e2bd 1190 a8be d456 36ba 14b8 b2bd
00000090: ba91 eabc cbe7 83bd f1cb 903d 177b 27be
000000a0: 288e 03bd 6477 693e 0cbc 073d 1878 9fbd
000000b0: 8de7 fd3d 0b95 64bc 8526 0dbd 49be c53c
000000c0: 03d0 90be a0a4 2cbe 7778 2e3e d03e 02bd
000000d0: 2405 a6bd 6869 3bbd 0f52 213e afc9 0abe
000000e0: 88b8 823d 0a3f 433d b7cb e03d dde3 533e
000000f0: 3742 55bd bd09 ce3d 681f febd b831 ff3d
00000100: be7c 80bd 788e 5a3e 719a f6bb b5cc 273c
00000110: a26e 003e ec90 cbbd 7d91 b7bd 4f6e efbd
00000120: 4807 23be 2f8d 66be 2615 ed3c 2693 69bb
00000130: c258 163e ea7d fa3d 4d46 26be d1d8 72be
00000140: 42fa ac3d dbfd 0d3e 6821 babd 1a36 2fbd
00000150: 325a e03d 0737 0e3e 4335 6a3e 4703 acbd
00000160: dbca d73b 8eb7 c4bd 9f77 c9bc 73f7 fe3d
00000170: da91 91bc 4da8 3c3e 4488 33bd 28c5 26be
00000180: 51f6 b7bc 84e6 8e3e 3b87 123e 1201 0d3e
00000190: 4610 c6bd 0466 ba3d a8c4 91bd f228 00bd
000001a0: 56ed a0bc 6bda adbc 062e ec3d df2d 83bc
000001b0: 7241 c73d bdfe a33d 5556 3fbb 9d31 65be
000001c0: 3ce9 123e a3f6 453e c230 913d 0e9a 51be
000001d0: 9967 44bd 112e 9c3d eac6 f938 66ab a33e
000001e0: 37da 39be a491 fa3c 9f9f 0a3d 3dd6 563d
000001f0: 807b 7c3e 0270 d6bd bc6e 68bd 2475 2cbd
00000200: 172c 06bd efe0 183e 1bfa cb3d 90aa 9f3c
00000210: 1d45 d8bd 3ea1 b4bc fa66 b23d d6e7 5a3e
00000220: 6374 a1bd d91a 96bb 72c7 493e 39f1 89bd
00000230: 3eff 883c d898 113d 0b6c 60bd ecc2 223e
00000240: 3b5b a03d 4749 85bd 43dc 58be 2605 95bd
00000250: 2eef 803d bf79 32bd ca2a 7cbd a3cf 1e3c
00000260: aebc 21be e633 27be 599e 2d3e a4ad 79be
00000270: 1b4d 153e bc9b 46be 886f 083e 5914 1e3e
00000280: 3579 73bd 1269 3c3d fb9a 00be d68f 0b3e
00000290: cdee 8fbd 071e 24be ae61 143e 7b6f 7a3d
000002a0: a1c4 2f3e 6200 65be 4d58 8cbd 6b9e 61be
000002b0: ff43 ccbd 32f7 29bd 3da2 303e e79a 733e
000002c0: ab65 003e 5cf0 133e 63d9 703e 5db9 053e
000002d0: 48a6 37be 7598 223e 7b58 0cbd a05f 9a3d
000002e0: 1d77 453d 86fa 993d 08a7 293d 2fcd c2bd
000002f0: ea55 f63c 67e8 893e 8fa9 f03c 8025 71bd
00000300: f40d 7d3d c58c 3a3c a87f 75bd 4c45 103e
00000310: 9756 a7bd c6f4 053c 6f4e 853d f8ba 03be
00000320: 5f6f e43c 906c 2abc d064 e03d f3fa 5abd
00000330: 815b edbc 0fad 23bd d19e 32be 0e50 6c3c
00000340: 1eaf 893d c33b 16be 17eb 15be 252f 973e
00000350: 5e73 3c3e 7f81 f1ba 948b 5fbe d6f2 873d
00000360: f7f2 8dbd 3066 aa3d 64f0 f23d 68e5 e2bd
00000370: 5d5d 47be 4352 c4bd a79b c8bd 2bc9 763e
00000380: 5d28 30be f5b3 163e 8e28 08be f491 363d
00000390: f12e fd3d 78ba 3b3d 0f68 ef3d 74a9 a03d
000003a0: 9545 403d d9c9 e039 6268 9cbb 45ba db3d
000003b0: d4a8 26be f8f5 383e 0baf c2bd c740 bb3a
000003c0: 70d0 91bd a6b2 2b3e f226 02be f2e6 59bd
000003d0: 8a4c 203e 0447 38be f031 ac3d efd0 06bd
000003e0: e42b 18be 1d06 4d3d 1ccd 4f3e dfbb 46bd
000003f0: 3efd f83d 5d3d e63d a004 e13d b7e6 113e

rnn.weight_hh_l0 f4 [128, 128]
0.05000554 0.15702899 -0.04244389 -0.11950401 0.11905211 0.07764316 -0.08109616 0.10006167
-0.11113097 -0.027572652 0.008025333 0.11064912 0.04122497 0.12506606 -0.12555617 -0.1649962
-0.05137441 -0.05288863 0.01525981 -0.11872171 0.13452348 -0.1786751 0.096983865 -0.005660378
0.09817708 0.031653073 0.17990942 -0.29773235 0.05523261 -0.040363654 0.03905934 -0.049146097
0.186173 0.10662424 0.061447702 0.14050525 0.12840874 -0.022775225 -0.07797308 0.032133784
-0.21682303 -0.016571151 -0.36636293 0.0041800253 0.009949833 -0.020243412 -0.031538818 0.19732752
0.10986533 -0.104753025 -0.071091816 0.1878898 -0.049117073 0.20014799 0.023971245 0.12363297
-0.04777352 0.088396095 -0.16538812 0.14673077 0.15551424 0.24504605 -0.15480149 -0.06969635
-0.13315263 0.19723772 0.11579342 -0.15745088 0.023795595 -0.061405037 0.17882188 0.053692833
0.06475601 0.055246107 0.028998649 -0.107614286 -0.30271348 0.18927693 -0.025738956 -0.03826171
0.0733809 -0.101139344 0.1742355 -0.018965475 0.3244556 -0.11283445 0.029780816 -0.015827782
0.0621297 0.007542467 -0.043505434 0.015625987 0.07341662 -0.12214867 0.31993252 0.012619951
0.106762335 -0.09577595 -0.2654943 -0.0053830496 0.06483256 0.09116438 0.0030541827 -0.102109894
0.017492987 0.1005275 0.1665845 0.04346378 0.043913323 0.13534111 0.03862303 -0.14868227
0.064591125 -0.24862193 -0.22719833 -0.017615959 -0.0427617 7.891974e-05 -0.12563425 -0.09022129
0.13674287 -0.013502741 0.16109847 0.013795965 -0.1770725 -0.07508868 -0.0608581 -0.05964617
-0.14400391 0.025844717 0.19123009 -0.010850388 0.12500656 -0.0650432 0.02601077 0.12062828
-0.17299017 0.006707516 0.07691301 0.110363014 0.26557136 -0.08910892 -0.12861224 0.17745109
-0.04595383 0.12272663 0.17461123 0.05716821 -0.044414468 0.012797222 -0.097419724 0.1767635
0.026166694 -0.011288671 0.041380256 0.16330367 0.010707305 0.15599796 -0.35499126 -0.09377062
-0.11512709 -0.13291186 0.058155257 0.013525383 -0.08242665 0.108258486 0.13767706 -0.10438854
-0.091162674 0.012385617 0.140245 0.03357424 -0.059420027 -0.10637206 -0.19498216 0.26796374
0.088292696 0.0660954 0.04844649 0.14145333 0.099089846 -0.12832068 0.12210235 0.12920998
0.07664008 -0.037101097 0.016048623 -0.06409615 0.005125722 0.10249926 -0.023850316 0.044118542
-0.13481289 0.04702257 -0.093879834 0.013578201 -0.01761304 -0.14414813 -0.08318708 -0.11560058
0.028626727 -0.007062049 0.28097463 0.08780744 -0.13945162 0.028536944 -0.08156271 -0.17284112
-0.1028749 0.05136573 -0.14029448 -0.20998423 -0.054161552 0.28559256 -0.13859612 -0.05791014
0.011927949 -0.037618414 0.04325423 0.079810284 0.23733789 -0.07180033 0.034627583 -0.25275812
0.18972833 0.08127416 -0.040653963 0.14371793 0.16933812 -0.07300222 0.2521161 -0.09772743
-0.090626724 -0.04679344 0.1333939 0.068690464 -0.23217537 0.24484389 0.187085 0.076472335
0.07488254 0.2115134 0.051637836 -0.16707397 0.13953589 0.07234315 -0.06503541 -0.056873042
0.056179903 -0.046824496 -0.010695132 0.11144055 -0.07118537 -0.030443901 -0.218385 0.12104208
00000000: 9cd2 4c3d 35cc 203e a5d9 2dbd 85be f4bd
00000010: 98d1 f33d 6103 9f3d be15 a6bd 22ed cc3d
00000020: a298 e3bd 0be0 e1bc b07c 033c 019c e23d
00000030: 84db 283d 5111 003e cc91 00be c4f4 28be
00000040: f96d 52bd c0a1 58bd 4804 7a3c 5e24 f3bd
00000050: 86c0 093e 9bf6 36be 7a9f c63d b17a b9bb
00000060: 1111 c93d a7a6 013d 2d3a 383e 6070 98be
00000070: 973b 623d 5c54 25bd b0fc 1f3d 6b4d 49bd
00000080: 23a4 3e3e cf5d da3d 96b0 7b3d 9ce0 0f3e
00000090: 957d 033e 1c93 babc 5ab0 9fbd b79e 033d
000000a0: db06 5ebe 39c0 87bc ec93 bbbe 98f8 883b
000000b0: a004 233c 83d5 a5bc d92e 01bd 3a10 4a3e
000000c0: 1301 e13d c188 d6bd 9698 91bd 2f66 403e
000000d0: fc2e 49bd 98f3 4c3e 585f c43c 4833 fd3d
000000e0: 2bae 43bd 0309 b53d 815b 29be 9740 163e
000000f0: 203f 1f3e 5aed 7a3e 4884 1ebe f6bc 8ebd
00000100: 2a59 08be aff8 493e 1a25 ed3d ce3a 21be
00000110: fbee c23c d983 7bbd 151d 373e 04ed 5b3d
00000120: cd9e 843d be49 623d 938e ed3c e164 dcbd
00000130: 43fd 9abe d0d1 413e 81da d2bc 50b8 1cbd
00000140: ba48 963d 2522 cfbd ca6a 323e 7c5d 9bbc
00000150: 0b1f a63e c015 e7bd e6f6 f33c 44a9 81bc
00000160: b67b 7e3d cd26 f73b c132 32bd 1202 803c
00000170: 745b 963d 1529 fabd 32ce a33e e9c3 4e3c
00000180: 36a6 da3d 2e26 c4bd deee 87be 4b64 b0bb
00000190: efc6 843d 64b4 ba3d af28 483b fe1e d1bd
000001a0: 744d 8f3c 5de1 cd3d 2195 2a3e 1407 323d
000001b0: 75de 333d dc96 0a3e 2f33 1e3d 2a40 18be
000001c0: 5a48 843d bf96 7ebe aea6 68be 584f 90bc
000001d0: e426 2fbd b681 a538 44a6 00be f1c5 b8bd
000001e0: 5306 0c3e 9a3a 5dbc fff6 243e 7908 623c
000001f0: 7e52 35be 18c8 99bd 5846 79bd 8b4f 74bd
00000200: c375 13be 4db8 d33c d2d1 433e d3c5 31bc
00000210: b801 003e 5f35 85bd 8a14 d53c f60b f73d
00000220: 5624 31be b9ca db3b 9184 9d3d 0106 e23d
00000230: f8f8 873e bd7e b6bd edb2 03be bdb5 353e
00000240: 153a 3cbd 1958 fb3d 49cd 323e 3729 6a3d
00000250: f2eb 35bd 70ab 513c fe83 c7bd 7e01 353e
00000260: 895b d63c 1ef4 38bc 587e 293d 1439 273e
00000270: b16d 2f3c eebd 1f3e 6ac1 b5be d00a c0bd
00000280: c0c7 ebbd 0c1a 08be 3534 6e3d 9199 5d3c
00000290: 4ecf a8bd a0b6 dd3d 37fb 0c3e a9c9 d5bd
000002a0: 7fb3 babd 0bed 4a3c 639c 0f3e 2485 093d
000002b0: 6a62 73bd 98d9 d9bd 67a9 47be 8b32 893e
000002c0: cdd2 b43d 065d 873d d46f 463d 24d9 103e
000002d0: 9eef ca3d 7f66 03be cc10 fa3d 9f4f 043e
000002e0: 79f5 9c3d 52f7 17bd 6778 833c d844 83bd
000002f0: acf5 a73b 22eb d13d bd61 c3bc a5b5 343d
00000300: 640c 0abe bd9a 403d 1244 c0bd 1a77 5e3c
00000310: 3949 90bc 919b 13be fd5d aabd ffbf ecbd
00000320: 9982 ea3c c368 e7bb e8db 8f3e 63d4 b33d
00000330: 68cc 0ebe 4fc6 e93c 5a0a a7bd 43fd 30be
00000340: 13b0 d2bd df64 523d 5ba9 0fbe 1b06 57be
00000350: 81d8 5dbd 3039 923e 24ec 0dbe 2f33 6dbd
00000360: 726d 433c c415 1abd 592b 313d 9373 a33d
00000370: b408 733e 0d0c 93bd a7d5 0d3d 8369 81be
00000380: 2548 423e 1173 a63d c584 26bd cb2a 133e
00000390: f966 2d3e 3082 95bd 5d15 813e 5225 c8bd
000003a0: 819a b9bd 7aaa 3fbd 6998 083e 96ad 8c3d
000003b0: 61bf 6dbe 5bb8 7a3e 3693 3f3e 879d 9c3d
000003c0: 045c 993d f896 583e 3282 533d 7015 2bbe
000003d0: 7fe2 0e3e a528 943d 4931 85bd b5f3 68bd
000003e0: e61c 663d 0bcb 3fbd a33a 2fbc f13a e43d
000003f0: a3c9 91bd 7d65 f9bc 51a0 5fbe e9e4 f73d

rnn.bias_ih_l0 f4 [128]
-0.0041746222 -0.004010767 -0.0007470302 0.0028294194 0.0026922605 0.0047212425 -0.0019135401 -0.0010162962
0.004111621 -0.0014849661 -0.002747012 0.0027365575 0.0010647745 0.0007032229 0.009288183 -0.0030516654
-0.0057159956 -0.004930998 -0.00015737311 -0.00031501733 -0.0026703512 -0.008176768 0.0059805727 0.0040405975
-0.0070014484 0.003541146 0.003954934 0.001538194 -0.010862203 -0.00067112624 0.0058695218 -0.0053435317
-0.0067075896 6.217177e-05 -0.009355024 -0.009234424 0.00446696 -0.0012057119 -0.0027857241 -0.0042914883
0.0013494218 0.004009887 0.0044535697 0.0027098511 0.008375561 -0.0019214817 0.005978824 -0.002453966
-0.002420175 -0.002974797 -0.0006881206 -0.00019673278 0.009468421 0.0027864017 -0.0050442438 0.0070009376
-0.006388743 0.006969912 -0.0068442826 0.003213327 0.0024017638 0.008046662 -0.0025877832 -0.0075663417
-0.004004273 -0.0024220345 -0.008810862 -0.00085382117 -0.0009380406 -0.0002519466 0.0055108033 -0.009984338
-0.00015599193 -0.0013698653 -0.007849146 0.008653057 0.0010520349 0.006361351 -0.0015460068 0.0108620385
-0.0032121337 0.0036118096 -0.0006068612 -0.0014403639 0.005790861 -0.005147611 -0.0041048615 -0.0019296507
-0.0041612885 0.0011409299 0.0013057466 -0.0034654557 0.0049690786 -0.0023399729 -0.013805221 -0.004723524
0.00391245 0.007259073 -0.013518439 0.002008388 0.0031314804 0.0048443605 0.0067310496 -0.0010246251
0.0056359563 0.0088027585 -0.010141556 0.0027954234 -0.007824138 -0.003411046 0.004719946 -0.012073576
0.0058369357 -0.000849765 -0.0010971877 0.0007970369 0.0027009782 -0.0065699946 0.007531815 0.008676427
0.0022245962 -0.0032104978 9.156183e-05 0.0031725632 0.005088745 0.0013714979 0.0009757397 -0.002452149
00000000: 45cb 88bb c16c 83bb 59d4 43ba c86d 393b
00000010: a370 303b a7b4 9a3b c0cf faba 3e35 85ba
00000020: c7ba 863b 32a3 c2ba 3707 34bb d157 333b
00000030: e78f 8b3a 7d58 383a 772d 183c 73fe 47bb
00000040: 3f4d bbbb 3694 a1bb 8604 25b9 e928 a5b9
00000050: 0f01 2fbb daf7 05bc aef8 c33b fd66 843b
00000060: 686c e5bb 9212 683b 6498 813b 3a9d c93a
00000070: 62f7 31bc 85ee 2fba 1e55 c03b cb18 afbb
00000080: 57cb dbbb 3762 8238 d145 19bc fb4b 17bc
00000090: 945f 923b fa08 9eba b290 36bb 9d9f 8cbb
000000a0: 15df b03a 5f65 833b 40ef 913b c297 313b
000000b0: a639 093c 3ada fbba 03ea c33b b8d2 20bb
000000c0: cc9b 1ebb d0f4 42bb fe62 34ba 0e4a 4eb9
000000d0: 7021 1b3c 109c 363b 2f4a a5bb 1f68 e53b
000000e0: a958 d1bb dc63 e43b 0146 e0bb ae96 523b
000000f0: e966 1d3b 26d6 033c cc97 29bb 13ef f7bb
00000100: 4736 83bb ffba 1ebb 6f5b 10bc f8d2 5fba
00000110: d7e6 75ba b317 84b9 f893 b43b 5995 23bc
00000120: c491 23b9 0d8d b3ba b499 00bc 8dc5 0d3c
00000130: 6fe4 893a e172 d03b 61a3 caba b1f6 313c
00000140: a982 52bb 1cb4 6c3b c415 1fba 98ca bcba
00000150: 43c1 bd3b 4aad a8bb 1382 86bb 55ec fcba
00000160: 6b5b 88bb 418b 953a 9625 ab3a b31c 63bb
00000170: a7d3 a23b 3b5a 19bb 4b2f 62bc cbc7 9abb
00000180: 0234 803b 85dd ed3b 717c 5dbc 299f 033b
00000190: 8639 4d3b 71bd 9e3b 2390 dc3b b74c 86ba
000001a0: d4ad b83b 7239 103c c528 26bc 6c33 373b
000001b0: d030 00bc db8b 5fbb c7a9 9a3b 40d0 45bc
000001c0: c443 bf3b c4c2 5eba 83cf 8fba 3ef0 503a
000001d0: e502 313b 1c49 d7bb 72cd f63b 9327 0e3c
000001e0: 88ca 113b 3767 52bb e204 c038 c7ea 4f3b
000001f0: 7dbf a63b d5c3 b33a c8c8 7f3a 3cb4 20bb

rnn.bias_hh_l0 f4 [128]
-0.0041746227 -0.004010767 -0.0007470305 0.0028294201 0.0026922605 0.0047212415 -0.0019135403 -0.0010162966
0.004111621 -0.0014849668 -0.002747012 0.0027365573 0.0010647741 0.0007032228 0.009288185 -0.0030516654
-0.005715996 -0.004930999 -0.00015737307 -0.0003150172 -0.0026703514 -0.008176767 0.0059805727 0.0040405975
-0.007001448 0.0035411457 0.0039549335 0.0015381938 -0.010862202 -0.00067112653 0.005869523 -0.0053435313
-0.0067075896 6.217204e-05 -0.0093550235 -0.009234424 0.0044669597 -0.0012057114 -0.002785724 -0.004291488
0.0013494219 0.004009887 0.004453571 0.0027098514 0.008375561 -0.0019214819 0.005978824 -0.002453966
-0.0024201751 -0.0029747977 -0.00068812055 -0.00019673334 0.009468421 0.002786402 -0.005044244 0.0070009385
-0.0063887425 0.0069699115 -0.006844282 0.0032133264 0.0024017636 0.008046662 -0.0025877832 -0.007566342
-0.0040042736 -0.0024220345 -0.008810863 -0.00085382094 -0.00093804044 -0.00025194473 0.005510804 -0.009984339
-0.0001559925 -0.0013698656 -0.007849145 0.008653056 0.0010520355 0.0063613504 -0.0015460065 0.010862038
-0.0032121332 0.0036118098 -0.0006068611 -0.0014403644 0.0057908595 -0.005147611 -0.004104862 -0.0019296509
-0.004161288 0.0011409306 0.0013057466 -0.003465457 0.0049690795 -0.002339974 -0.01380522 -0.0047235247
0.00391245 0.0072590723 -0.013518439 0.0020083876 0.0031314802 0.004844361 0.00673105 -0.001024625
0.0056359563 0.0088027585 -0.010141554 0.0027954236 -0.007824138 -0.0034110462 0.004719946 -0.012073576
0.005836935 -0.000849765 -0.0010971876 0.0007970369 0.0027009782 -0.006569995 0.007531815 0.008676425
0.0022245962 -0.003210498 9.1561444e-05 0.0031725625 0.005088744 0.0013714979 0.00097574 -0.0024521493
00000000: 46cb 88bb c16c 83bb 5ed4 43ba cb6d 393b
00000010: a370 303b a5b4 9a3b c2cf faba 4135 85ba
00000020: c7ba 863b 38a3 c2ba 3707 34bb d057 333b
00000030: e48f 8b3a 7c58 383a 792d 183c 73fe 47bb
00000040: 404d bbbb 3894 a1bb 8304 25b9 e528 a5b9
00000050: 1001 2fbb d9f7 05bc aef8 c33b fd66 843b
00000060: 676c e5bb 9112 683b 6398 813b 389d c93a
00000070: 61f7 31bc 8aee 2fba 2155 c03b ca18 afbb
00000080: 57cb dbbb 5c62 8238 d045 19bc fb4b 17bc
00000090: 935f 923b f608 9eba b190 36bb 9c9f 8cbb
000000a0: 16df b03a 5f65 833b 43ef 913b c397 313b
000000b0: a639 093c 3cda fbba 03ea c33b b8d2 20bb
000000c0: cd9b 1ebb d3f4 42bb fd62 34ba 344a 4eb9
000000d0: 7021 1b3c 119c 363b 304a a5bb 2168 e53b
000000e0: a858 d1bb db63 e43b 0046 e0bb ac96 523b
000000f0: e866 1d3b 26d6 033c cc97 29bb 14ef f7bb
00000100: 4836 83bb ffba 1ebb 705b 10bc f4d2 5fba
00000110: d4e6 75ba 7317 84b9 f993 b43b 5a95 23bc
00000120: eb91 23b9 108d b3ba b399 00bc 8cc5 0d3c
00000130: 74e4 893a e072 d03b 5fa3 caba b0f6 313c
00000140: a782 52bb 1db4 6c3b c215 1fba 9cca bcba
00000150: 40c1 bd3b 4aad a8bb 1482 86bb 57ec fcba
00000160: 6a5b 88bb 478b 953a 9625 ab3a b81c 63bb
00000170: a9d3 a23b 405a 19bb 4a2f 62bc ccc7 9abb
00000180: 0234 803b 83dd ed3b 717c 5dbc 279f 033b
00000190: 8539 4d3b 72bd 9e3b 2490 dc3b b64c 86ba
000001a0: d4ad b83b 7239 103c c328 26bc 6d33 373b
000001b0: d030 00bc dc8b 5fbb c7a9 9a3b 40d0 45bc
000001c0: c243 bf3b c4c2 5eba 82cf 8fba 3ef0 503a
000001d0: e502 313b 1d49 d7bb 72cd f63b 9027 0e3c
000001e0: 88ca 113b 3867 52bb ad04 c038 c4ea 4f3b
000001f0: 7bbf a63b d5c3 b33a cec8 7f3a 3db4 20bb

rnn.weight_ih_l1 f4 [128, 128]
0.059323907 -0.1569635 -0.09867971 -0.117920645 0.051203806 -0.03686618 -0.14829037 0.20035075
0.24248366 -0.1020508 0.1641452 0.060184162 -0.068813674 -0.10168982 -0.082192786 -0.25773743
-0.2588834 -0.074924156 -0.09527362 -0.21045019 -0.10871913 0.14353472 0.14044122 0.15587471
0.028208094 0.13475494 0.3540299 0.16087133 0.01614427 -0.103784084 0.0085064415 -0.15881954
0.073651075 -0.0131410435 0.052369747 -0.16687243 -0.026249433 0.042068854 -0.08317305 -0.06156208
-0.08408013 0.119999826 0.09184748 0.02768244 0.039291773 0.122813284 -0.21314667 0.017491732
-0.10588587 0.051257882 0.123817645 -0.018041637 0.12146584 0.115436815 -0.078377835 -0.18759058
0.028210564 -0.05289393 0.10781155 -0.14115731 -0.085785896 -0.23406869 0.12604906 -0.06509448
-0.14121325 0.19309677 0.1818787 0.06101765 -0.01951342 0.08883708 -0.024320912 0.034331143
0.05318884 -0.07128432 0.034949016 0.1412039 -0.0077933674 0.073246226 0.06891635 -0.23281977
0.12517159 -0.060703717 -0.016087515 0.014195296 0.037270583 0.023738995 0.027993303 -0.10222496
-0.007763816 -0.050756745 -0.060130086 -0.11078319 -0.034768663 0.15231669 -0.073385626 -0.009329004
-0.079080224 -0.03209313 0.102149084 -0.12506247 0.027007926 0.06388643 0.05357756 0.055971738
0.07553888 -0.116791405 0.20257807 -0.11792116 -0.046403028 -0.20023644 -0.16197775 -0.011765478
-0.19491978 -0.34933263 -0.18762144 -0.052514665 0.18070944 0.1156806 0.14877538 0.065079644
-0.047772676 -0.109946445 0.29477108 0.24141659 0.06877923 0.1496042 -0.013722137 -0.039262787
-0.078304484 -0.009329795 0.052116398 -0.16972673 0.07174781 -0.04044098 0.09721016 -0.027719613
0.13289382 -0.03342548 -0.0023879593 -0.07880952 -0.0006765061 -0.2432426 -0.2866039 -0.009410652
-0.09341736 -0.17795007 0.024030231 -0.06583627 0.03343562 0.038332388 -0.06146239 0.28748882
-0.19208448 0.094787315 0.17287363 -0.1070635 0.09348231 0.09652149 -0.003465112 -0.11787524
0.049324006 -0.20862854 -0.021496555 0.14026245 -0.16378506 0.10388707 -0.1364835 0.041068014
-0.009872147 0.124798216 -0.29923743 -0.01845875 -0.108715534 -0.26700622 -0.06084657 0.058067635
0.13896075 0.03633248 0.118855156 -0.058101397 0.021937123 0.044967797 -0.09255051 0.028887957
0.0032008137 0.17354137 -0.037271984 0.12510347 0.12554723 0.0028379196 -0.08682591 -0.07172347
0.305836 0.027962035 0.1561365 -0.13772494 0.025886124 -0.09677791 -0.11269916 0.011785225
0.0672315 0.15478832 0.12372011 0.031878203 -0.11985577 0.03930682 0.06864793 0.018057171
-0.03807197 -0.11885089 -0.20723392 -0.089413315 -0.12895216 0.17021252 -0.24349542 0.09239582
0.22981782 -0.1829543 -0.070030816 -0.10912896 0.05064947 -0.0028957098 -0.18881142 -0.20389117
-0.026713215 0.03431529 0.063934 0.008044474 -0.20573598 -0.07615468 0.11692085 -0.13882107
-0.16277319 -0.1371677 -0.22812413 0.08563932 0.036018997 0.08886246 -0.053972315 0.14534107
-0.18756798 0.042278804 -0.13550709 0.0745266 -0.044766065 -0.021032006 -0.16999783 -0.057593703
-0.0702802 0.29407895 -0.054970983 -0.246567 0.09249945 0.02635426 -0.043545336 0.053306
00000000: a0fd 723d 0abb 20be 9618 cabd 6180 f1bd
00000010: 15bb 513d fe00 17bd 6ed9 17be bf28 4d3e
00000020: a34d 783e 0300 d1bd ae15 283e ab83 763d
00000030: 2fee 8cbd c142 d0bd b154 a8bd 29f6 83be
00000040: 5d8c 84be d671 99bd d11e c3bd 4180 57be
00000050: 23a8 debd c4fa 123e d3cf 0f3e 9f9d 1f3e
00000060: a914 e73c 33fd 093e 6843 b53e 74bb 243e
00000070: fd40 843c c08c d4bd 9a5e 0b3c 97a1 22be
00000080: 60d6 963d 884d 57bc a981 563d 9be0 2abe
00000090: 0d09 d7bc 6450 2c3d a256 aabd 8528 7cbd
000000a0: 3432 acbd 78c2 f53d 881a bc3d 49c6 e23c
000000b0: 69f0 203d 8885 fb3d 1f43 5abe d24a 8f3c
000000c0: b1da d8bd c9f3 513d 1b94 fd3d 0ecc 93bc
000000d0: 15c3 f83d 236a ec3d 8f84 a0bd bf17 40be
000000e0: d719 e73c 4ea7 58bd 4dcc dc3d 8b8b 10be
000000f0: 84b0 afbd b4af 6fbe 0113 013e 4150 85bd
00000100: 359a 10be 29bb 453e 693e 3a3e a5ed 793d
00000110: 9cda 9fbc 37f0 b53d a63c c7bc d09e 0c3d
00000120: 8bdc 593d 83fd 91bd b326 0f3d c197 103e
00000130: 815f ffbb 1e02 963d 0424 8d3d 4e68 6ebe
00000140: fb2c 003e 76a4 78bd f7c9 83bc 6393 683c
00000150: 0aa9 183d 4878 c23c 3652 e53c 525b d1bd
00000160: 9c67 febb 4ee6 4fbd f74a 76bd 4ce2 e2bd
00000170: 9669 0ebd e8f8 1b3e 344b 96bd aed8 18bc
00000180: d0f4 a1bd 1674 03bd 8a33 d13d 6010 00be
00000190: ba3f dd3c e3d6 823d 2574 5b3d 9f42 653d
000001a0: 21b4 9a3d 5530 efbd a070 4f3e a680 f1bd
000001b0: 1a11 3ebd c80a 4dbe 7fdd 25be fec3 40bc
000001c0: 0d99 47be badb b2be d61f 40be 9e19 57bd
000001d0: e50b 393e f3e9 ec3d 9358 183e 7a48 853d
000001e0: 48ad 43bd 9a2b e1bd 3cec 963e e935 773e
000001f0: 20dc 8c3d d831 193e d0d2 60bc 04d2 20bd
00000200: 1a5e a0bd ffdb 18bc 0178 553d d8cc 2dbe
00000210: 84f0 923d 71a5 25bd 1f16 c73d 3e14 e3bc
00000220: 5115 083e 28e9 08bd 4f7f 1cbb e366 a1bd
00000230: 8e57 31ba 9714 79be bfbd 92be 232f 1abc
00000240: 9a51 bfbd 8b38 36be 0cdb c43c 2bd5 86bd
00000250: caf3 083d 6c02 1d3d fdbf 7bbd bc31 933e
00000260: cbb1 44be da1f c23d c905 313e 1c44 dbbd
00000270: a773 bf3d 0fad c53d ef16 63bb 9368 f1bd
00000280: f807 4a3d b8a2 55be 8b19 b0bc f6a0 0f3e
00000290: 45b7 27be bfc2 d43d 55c2 0bbe ef36 283d
000002a0: c9be 21bc 3596 ff3d a635 99be ce36 97bc
000002b0: 40a6 debd 0ab5 88be 413a 79bd 54d8 6d3d
000002c0: ba4b 0e3e 5ed1 143d 556a f33d bbfb 6dbd
000002d0: 7bb5 b33c 2730 383d 1f8b bdbd 70a6 ec3c
000002e0: bec4 513b d4b4 313e 82aa 18bd 201b 003e
000002f0: 748f 003e 64fc 393b c8d1 b1bd c1e3 92bd
00000300: 8996 9c3e a310 e53c 3fe2 1f3e c407 0dbe
00000310: 230f d43c 7f33 c6bd d1ce e6bd d116 413c
00000320: abb0 893d d480 1e3e f860 fd3d b892 023d
00000330: f176 f5bd 3000 213d 4997 8c3d a2ec 933c
00000340: 5bf1 1bbd 1868 f3bd 2135 54be 541e b7bd
00000350: 090c 04be 314c 2e3e dd56 79be 053a bd3d
00000360: 5d55 6b3e 5f58 3bbe 516c 8fbd 017f dfbd
00000370: d275 4f3d f3c5 3dbb c857 41be d9c8 50be
00000380: acd5 dabc 318e 0c3d d4ef 823d f8cc 033c
00000390: 74ac 52be fcf6 9bbd 3374 ef3d 1c27 0ebe
000003a0: 04ae 26be b175 0cbe 5f99 69be ab63 af3d
000003b0: a888 133d 85fd b53d 1312 5dbd 4ad4 143e
000003c0: d211 40be 8a2c 2d3d 5fc2 0abe 67a1 983d
000003d0: 9f5c 37bd 504b acbc e913 2ebe 60e7 6bbd
000003e0: 11ef 8fbd 8491 963e 4129 61bd 0f7c 7cbe
000003f0: 5a70 bd3d e4e4 d73c 985c 32bd 6457 5a3d

rnn.weight_hh_l1 f4 [128, 128]
-0.20286226 -0.042208068 0.112443246 0.14122093 0.034804698 -0.19313073 -0.12381135 -0.09957718
0.06452405 -0.011094034 -0.14786536 0.11979867 0.11306748 -0.080027774 0.07328744 -0.02611409
-0.034543134 0.1278009 -0.024313746 -0.007278894 0.13664636 0.06775591 -0.04219279 -0.13057147
0.032511678 0.13180357 0.09244204 0.072309 0.03767064 -0.17894015 0.04932458 0.024152597
-0.0041955477 0.0879253 0.023920627 0.0017501797 -0.057018545 -0.079005964 0.03347688 0.24973114
0.10392671 0.110494465 0.11217259 -0.01902597 -0.20205997 0.13745274 0.11360735 0.01756748
-0.0105126975 0.13254364 0.06446668 0.06619723 0.02757848 -0.033389285 0.17096673 -0.03719584
0.1123953 0.14001337 0.13717714 -0.14045928 -0.068079665 0.01450389 -0.13812014 0.18781023
-0.057684302 -0.11575659 0.20739964 0.05894107 0.12331253 -0.017481826 -0.015251179 0.17160912
0.10973388 0.03590784 -0.029366024 -0.20017149 -0.004635601 0.012259009 -0.06871124 -0.0728873
0.06817833 0.058979668 -0.04446955 -0.18540916 -0.012295925 -0.062758744 0.09237537 -0.2445715
-0.0002640442 0.07270469 -0.120024435 0.08897413 0.13798319 -0.005347832 0.20036237 0.09646144
-0.25932446 0.2133927 0.18619534 0.1423721 0.22271396 0.0025598116 -0.25895682 0.19915348
0.1518847 -0.20527835 0.14278194 -0.012866866 -0.12976034 -0.011486406 -0.14314638 0.118562326
0.20806529 -0.15536593 0.04635226 -0.18482392 0.15633507 -0.16601011 -0.2798756 -0.06287227
0.026275953 0.04433084 0.37941855 -0.15466794 0.14966922 0.0051392135 -0.045053333 0.08003238
-0.026609467 0.002702198 0.050024994 0.18449104 0.31626007 0.021245187 0.0023549881 0.17464799
-0.05424959 -0.0024231414 0.116481125 -0.051391043 -0.056940693 -0.076423004 0.0900166 -0.16568583
0.13882416 0.12990955 0.115267016 -0.04520627 -0.016994 -0.05587899 0.13173395 0.30228826
-0.07116768 0.0135790715 -0.03619824 -0.20770185 0.147402 -0.04366528 0.041614305 -0.06763561
-0.03422726 0.048455063 0.17960966 0.029517505 -0.16735217 -0.012857788 -0.10208342 -0.031072395
-0.11178445 -0.11618812 -0.046380803 0.034309477 -0.048097692 -0.082775034 -0.13974358 -0.08938585
-0.16841523 0.011875735 -0.27555135 0.1462126 -0.12994704 -0.25216854 -0.24297628 0.25370988
0.010823368 0.15756844 0.0049085757 0.06689435 0.05534347 0.18646163 -0.1840056 0.03224776
0.0389509 0.089497216 -0.010817744 -0.018074587 0.006186371 -0.0034909798 0.038044374 0.15233533
-0.06549443 -0.027369186 -0.18455662 -0.12400739 -0.119951755 -0.039657213 -0.23430887 0.099085055
-0.19486737 -0.06848975 0.09675801 -0.074783884 -0.03424391 0.008108989 -0.26068762 0.07029523
0.0224444 0.09843176 -0.061837316 -0.18724498 -0.07707284 0.1827063 0.12981752 -0.10073711
-0.080811724 -0.1877865 0.24844606 0.24712245 -0.11756002 -0.03861353 -0.09676119 0.0044314987
0.057173397 -0.088178255 0.105759576 0.0405393 -0.174115 -0.11779402 0.12133496 -0.011571016
0.060973853 0.030732917 -0.14810419 -0.1387919 0.07761459 -0.18462162 0.3170847 0.013324383
0.18516946 0.0728465 -0.048116144 -0.13787349 -0.049526483 0.02055479 -0.07470294 -0.059530154
00000000: 20bb 4fbe 5ee2 2cbd a548 e63d 389c 103e
00000010: 5f8f 0e3d 10c4 45be ce90 fdbd 1fef cbbd
00000020: 2f25 843d c0c3 35bc 046a 17be 0159 f53d
00000030: ec8f e73d 9ae5 a3bd ba17 963d 37ed d5bc
00000040: 1a7d 0dbd 3dde 023e 9f2d c7bc ca83 eebb
00000050: 06ed 0b3e 9cc3 8a3d 59d2 2cbd 87b4 05be
00000060: f72a 053d 84f7 063e 4152 bd3d be16 943d
00000070: 874c 1a3d 163c 37be 9208 4a3d abdb c53c
00000080: ce7a 89bb 2e12 b43d 31f5 c33c 4966 e53a
00000090: 478c 69bd e1cd a1bd 0e1f 093d 85b9 7f3e
000000a0: 87d7 d43d ec4a e23d beba e53d 5adc 9bbc
000000b0: cfe8 4ebe 69c0 0c3e f8aa e83d ade9 8f3c
000000c0: 733d 2cbc 85b9 073e 1b07 843d 6a92 873d
000000d0: 44ec e13c 34c3 08bd e711 2f3e aa5a 18bd
000000e0: 822f e63d aa5f 0f3e 2a78 0c3e 8fd4 0fbe
000000f0: 5a6d 8bbd b9a1 6d3c 5e6f 0dbe 5351 403e
00000100: 6046 6cbd cb11 edbd 9260 543e 316c 713d
00000110: 488b fc3d 0c36 8fbc 15e0 79bc 4dba 2f3e
00000120: 28bc e03d 1914 133d 0491 f0bc c1f9 4cbe
00000130: 3de6 97bb 03da 483c 7bb8 8cbd f045 95bd
00000140: 15a1 8b3d aa94 713d b425 36bd e6db 3dbe
00000150: d974 49bc a887 80bd 4c2f bd3d f470 7abe
00000160: 6a6f 8ab9 32e6 943d 5fcf f5bd 1238 b63d
00000170: 774b 0d3e de3c afbb cb2b 4d3e 938d c53d
00000180: 2dc6 84be 9e83 5a3e fea9 3e3e fec9 113e
00000190: 210f 643e 83c2 273b fd95 84be e4ee 4b3e
000001a0: aa87 1b3e 7d34 52be 6e35 123e 8ccf 52bc
000001b0: e5df 04be 7b31 3cbc f794 12be ced0 f23d
000001c0: 110f 553e 3f18 1fbe dedb 3d3d 7b42 3dbe
000001d0: 4d16 203e 8efe 29be db4b 8fbe 2dc3 80bd
000001e0: ab40 d73c 4194 353d 2643 c23e 4661 1ebe
000001f0: e342 193e d966 a83b d889 38bd 04e8 a33d
00000200: 19fc d9bc 5c17 313b 02e7 4c3d 38eb 3c3e
00000210: d7ec a13e 630a ae3c 2556 1a3b ecd6 323e
00000220: d134 5ebd 91cd 1ebb a88d ee3d 6a7f 52bd
00000230: a53a 69bd aa83 9cbd a05a b83d 8ca9 29be
00000240: ec27 0e3e 0207 053e 1d11 ec3d 362a 39bd
00000250: 0037 8bbc 5ee1 64bd 44e5 063e 87c5 9a3e
00000260: 5cc0 91bd c17a 5e3c 9b44 14bd cbaf 54be
00000270: 8df0 163e 5dda 32bd c373 2a3d 8a84 8abd
00000280: e231 0cbd d178 463d 98eb 373e b2ce f13c
00000290: 5e5e 2bbe 79a9 52bc 1d11 d1bd 898b febc
000002a0: 3fef e4bd 09f4 edbd ccf9 3dbd 1888 0c3d
000002b0: 1602 45bd f585 a9bd f118 0fbe ee0f b7bd
000002c0: 0b75 2cbe 7192 423c 1115 8dbe c1b8 153e
000002d0: d610 05be 3c1c 81be c6ce 78be 43e6 813e
000002e0: 7f54 313c 9f59 213e 1ed8 a03b e8ff 883d
000002f0: d6af 623d ccef 3e3e f76b 3cbe 3a16 043d
00000300: fb8a 1f3d 514a b73d e83c 31bc 2811 94bc
00000310: 0bb7 ca3b ecc8 64bb 6bd4 1b3d cbfd 1b3e
00000320: f221 86bd 5835 e0bc 69fc 3cbe 96f7 fdbd
00000330: 44a9 f5bd 9a6f 22bd aaee 6fbe 1bed ca3d
00000340: 508b 47be 5b44 8cbd 1029 c63d 4b28 99bd
00000350: 5843 0cbd 91db 043c d978 85be f2f6 8f3d
00000360: 51dd b73c 9796 c93d 2049 7dbd 26bd 3fbe
00000370: 5dd8 9dbd 5c17 3b3e e2ee 043e 424f cebd
00000380: 9e80 a5bd 1b4b 40be a568 7e3e ab0d 7d3e
00000390: 4fc3 f0bd 3929 1ebd bb2a c6bd 1b36 913b
000003a0: a72e 6a3d cd96 b4bd 7a98 d83d 890c 263d
000003b0: 344b 32be fe3d f1bd 777e f83d 5c94 3dbc
000003c0: b8bf 793d 99c3 fb3c a0a8 17be 771f 0ebe
000003d0: 66f4 9e3d 730d 3dbe ed58 a23e 834e 5a3c
000003e0: 109d 3d3e 8c30 953d 6f15 45bd b52e 0dbe
000003f0: 48dc 4abd 8562 a83c dbfd 98bd e4d5 73bd

rnn.bias_ih_l1 f4 [128]
0.0048250738 0.003416089 0.0037851236 -0.0015266535 0.0020038278 -0.0010210269 0.007017541 0.0007848289
-0.00021205097 0.009164026 0.0034134756 -0.00070147106 0.00096871256 0.00826838 -0.0010941351 -0.0005699253
-0.0023502617 -0.0004524464 -0.0043595876 -0.002028074 -0.0029091565 -0.0035802661 -0.0012684385 -0.00444893
-0.0031809825 0.003184309 0.0027555425 0.0009089398 -0.0015003743 0.0005545327 -0.0021130065 0.000137969
-0.00030073637 -0.0013224664 -0.001044274 0.0044200537 0.004053619 -0.0014616232 0.0049811024 0.0008566311
0.00013872707 -0.004255477 -0.005259383 0.0048187077 -0.0044541503 0.00079349 0.006535696 -0.0018353243
-0.003786958 0.00026754403 0.0008821524 0.0040668086 0.0030744267 0.0008531767 0.007388975 -0.0037753328
0.0011033094 -0.002995604 -0.005817183 0.0024439183 0.0011242382 -0.0009372957 -0.0042583295 0.0056187916
-0.0010018616 0.0016818062 -0.0067539425 0.0025237338 -0.004670914 0.0045327996 0.0038185872 0.0053056623
0.0034858189 0.0022488332 0.008623298 -0.0014565724 -0.005686043 -0.0003695071 0.0050714826 0.005956302
-0.0003854959 0.0008910641 0.0005978235 0.0032276646 0.0010910429 0.00052111177 -0.0048876116 -0.008578066
0.002372891 0.008337474 -0.00022402899 -0.001859148 0.0020898532 -0.0026781631 -0.0014385374 0.002253628
-0.00046726855 0.004774457 0.0014262687 -0.004960107 -0.002436326 0.0025071641 -0.005081984 -0.0014280851
-0.0013415639 0.0041519725 -0.0051441495 -0.000378781 -0.0046809358 0.0020455797 0.0014693142 0.0026437063
0.0031316432 -0.0012964618 -0.0027073869 -0.0056292037 0.0021374421 0.0066190287 0.001242487 0.0024860492
-0.0019330529 -0.0031726859 0.006614074 -0.003393959 0.00024933336 0.0015339386 -0.0021272353 0.0011040122
00000000: a71b 9e3b 77e0 5f3b d60f 783b fe19 c8ba
00000010: a752 033b fad3 85ba 67f3 e53b fabc 4d3a
00000020: 005a 5eb9 b624 163c 9eb4 5f3b ede2 37ba
00000030: 33f1 7d3a 1978 073c 1569 8fba 0a67 15ba
00000040: d906 1abb 5436 edb9 dfda 8ebb 70e9 04bb
00000050: 8ca7 3ebb e6a2 6abb bc41 a6ba 54c8 91bb
00000060: 0878 50bb d7af 503b 5596 343b eb45 6e3a
00000070: 35a8 c4ba 0f5e 113a 5e7a 0abb c5ab 1039
00000080: 27ac 9db9 9c56 adba 05e0 88ba 19d6 903b
00000090: 39d4 843b f093 bfba 8438 a33b 8a8f 603a
000000a0: 4477 1139 8771 8bbb e756 acbb 40e6 9d3b
000000b0: 1ff4 91bb 3602 503a 6429 d63b 448f f0ba
000000c0: 9d2e 78bb 2745 8c39 3f40 673a dd42 853b
000000d0: 527c 493b b8a7 5f3a 371f f23b 936b 77bb
000000e0: ec9c 903a e551 44bb 119e bebb 252a 203b
000000f0: 2d5b 933a dab4 75ba 7589 8bbb d71d b83b
00000100: e650 83ba 0d70 dc3a 2d50 ddbb 3a65 253b
00000110: 770e 99bb e187 943b 4341 7a3b 1fdb ad3b
00000120: 5672 643b 2961 133b bc48 0d3c 76ea beba
00000130: fc51 babb 67ba c1b9 ae2e a63b 152d c33b
00000140: 621c cab9 4d96 693a 42b7 1c3a 3a87 533b
00000150: 5301 8f3a 389b 083a 4228 a0bb 048b 0cbc
00000160: 8182 1b3b e799 083c 53e9 6ab9 a8ae f3ba
00000170: ebf5 083b 1f84 2fbb 4e8d bcba 9bb1 133b
00000180: b9fb f4b9 0c73 9c3b a3f1 ba3a 6588 a2bb
00000190: c4aa 1fbb 3c4f 243b c686 a6bb 962e bbba
000001a0: 6ad7 afba 450d 883b 4190 a8bb 2097 c6b9
000001b0: 8962 99bb 220f 063b 0196 c03a 0842 2d3b
000001c0: 413c 4d3b 0aee a9ba 6a6e 31bb 2f75 b8bb
000001d0: 5414 0c3b 70e4 d83b f2da a23a fcec 223b
000001e0: 7e5e fdba d6ec 4fbb e0ba d83b 2f6d 5ebb
000001f0: f5b8 8239 700e c93a 1669 0bbb 81b4 903a
