MLP_Features/Thesis Models/MLP_feature_v2.pth (torch, 10312 bytes, 3 tensors)

w1 f4 [30, 64]
0.07392644 -0.050258435 -0.039796393 -0.037248913 -0.12543993 0.2037158 -0.031495243 0.13448712
-0.060523618 -0.04107599 0.2630642 0.024506101 -0.13765149 0.074166924 0.2249077 -0.012045133
0.089450225 0.040790647 0.25193876 -0.07270528 0.071502894 0.2131983 0.18945396 -0.15077814
0.20562905 -0.0020711368 0.05456821 0.14839408 0.0919032 0.22415064 -0.07776876 0.13513942
0.12269652 0.17370088 0.1270648 -0.16703732 -0.14889771 0.22696485 0.055056546 -0.10530051
0.02958615 0.017674247 -0.1707045 -0.14954896 0.1418007 -0.042022094 0.1575169 -0.034720737
-0.041579377 -0.06523343 0.2257612 0.112672426 -0.07427033 -0.05629454 0.004620996 -0.06718139
-0.06680951 0.22449595 0.06672537 0.2673806 -0.098837964 -0.052549142 0.02822461 -0.0716234
0.048368763 0.14902514 0.09620617 -0.064383246 -0.13837281 -0.082742706 0.03894005 0.011401347
-0.120796315 -0.011297829 0.21160711 0.0052844905 -0.057592925 -0.14574979 0.01110472 0.063153006
-0.092199095 -0.014734925 0.21597506 -0.061611615 0.01506964 0.13015127 0.08870488 0.15751952
-0.034532007 -0.117212325 0.15181284 -0.023211597 0.18440367 0.1554602 -0.00074730336 0.07123411
-0.0221195 0.2301765 -0.008903083 -0.10419464 -0.17453831 0.10765666 0.17675823 0.19751807
0.0755785 -0.03374888 -0.08852561 -0.025434885 0.13844894 -0.003913081 -0.023191903 0.046298873
-0.1308736 -0.033186935 0.036722794 -0.054116555 -0.020360133 -0.103508286 0.047497842 -0.01839321
-0.09361315 -0.040109184 0.015940268 0.1322092 -0.2100857 -0.04954622 0.013594479 0.0029811927
0.19082679 -0.06804062 -0.046395484 0.06448335 -0.013046901 -0.21729065 0.15659353 0.052804004
0.053894345 0.1005245 0.20985913 -0.022545205 -0.08992039 0.10301077 0.26074246 0.19890131
-0.111577794 0.13615711 0.26833877 0.1206514 0.19280075 0.12761845 0.21139637 -0.10906509
0.10305792 -0.035601705 0.23014791 0.18771783 0.13345411 0.19038077 0.12089264 0.059428096
0.08384224 0.2659164 0.05229492 0.09438925 -0.0963809 0.20645873 0.12792192 0.19020388
0.23155285 0.13847932 -0.018212067 0.09497537 0.020666154 0.12998317 0.0993825 0.09190866
-0.025576157 0.004512263 -0.111179195 0.09261452 -0.23409227 0.09157521 0.20211796 -0.021844147
-0.17549971 -0.13648076 -0.01143645 0.17862046 0.22627065 0.14580233 0.037846122 0.037129615
-0.09485827 0.10310984 0.28334323 -0.11659484 0.31728384 -0.11611151 -0.18590187 0.05969817
-0.109756164 0.0102193635 0.008444679 0.123583846 -0.09881919 -0.038794585 -0.10944087 0.12671499
0.015889876 0.08342523 -0.21008164 -0.20654346 0.17551892 0.109777346 0.04513121 -0.14610946
0.17631465 -0.06658594 0.11711445 0.22717789 0.38958886 0.11786428 0.16265921 -0.03852122
0.056676913 0.09278598 0.32817137 0.22780786 0.14225888 0.04592746 0.016049244 0.2547721
-0.14785522 0.08569215 0.2451023 0.034909725 -0.29165262 -0.0016911123 -0.14022231 -0.21454482
0.19090772 0.13578673 0.014494005 -0.16337758 0.28857836 0.24497657 0.12074457 -0.14015836
0.13507988 0.12454041 -0.058735467 -0.028969366 0.26610956 0.3035823 -0.0058988715 0.108545035
00000000: bf66 973d cadb 4dbd 8b01 23bd 5192 18bd
00000010: 5373 00be e09a 503e 2801 01bd feb6 093e
00000020: 9de7 77bd 4c3f 28bd 5ab0 863e 05c1 c83c
00000030: 83f4 0cbe d4e4 973d 344e 663e f358 45bc
00000040: ae31 b73d 1814 273d 1efe 803e 81e6 94bd
00000050: 1c70 923d a850 5a3e 3800 423e 9665 1abe
00000060: 6c90 523e e9bb 07bb ea82 5f3d 9ef4 173e
00000070: bf37 bc3d bf87 653e 3a45 9fbd fd61 0a3e
00000080: 5048 fb3d a5de 313e 461d 023e d50b 2bbe
00000090: a478 18be 7969 683e f982 613d cba7 d7bd
000000a0: a75e f23c 95c9 903c 29cd 2ebe 5d23 19be
000000b0: 3434 113e 5c1f 2cbd 1c4c 213e 5537 0ebd
000000c0: 234f 2abd 1b99 85bd f22d 673e cdc0 e63d
000000d0: 0b1b 98bd 1b95 66bd b96b 973b 6696 89bd
000000e0: 6dd3 88bd 44e2 653e 50a7 883d 1ce6 883e
000000f0: 8f6b cabd c53d 57bd 4c37 e73c 4aaf 92bd
00000100: 531e 463d 0c9a 183e be07 c53d 5ddb 83bd
00000110: 9ab1 0dbe 0275 a9bd 9a7f 1f3d b7cc 3a3c
00000120: 0f64 f7bd 881a 39bc 89af 583e 8529 ad3b
00000130: 8fe6 6bbd 6f3f 15be 92f0 353c 5d56 813d
00000140: e1d2 bcbd c16a 71bc 9128 5d3e 765c 7cbd
00000150: a7e6 763c 6046 053e e7aa b53d cc4c 213e
00000160: 6f71 0dbd 040d f0bd d374 1b3e 3f26 bebc
00000170: 51d4 3c3e f530 1f3e aee6 43ba 30e3 913d
00000180: f433 b5bc 63b3 6b3e 3dde 11bc 0064 d5bd
00000190: 2cba 32be 187b dc3d 1c00 353e 2d42 4a3e
000001a0: e7c8 9a3d 443c 0abd ea4c b5bd d25c d0bc
000001b0: 8fc5 0d3e 4d39 80bb f2fc bdbc e3a3 3d3d
000001c0: bb03 06be 06ef 07bd a46a 163d 52a9 5dbd
000001d0: 4bca a6bc 27fc d3bd 198d 423d 5bad 96bc
000001e0: 40b8 bfbd 8749 24bd 2a95 823c d961 073e
000001f0: b520 57be faf0 4abd 61bb 5e3c 1d60 433b
00000200: 1968 433e e158 8bbd 3109 3ebd d90f 843d
00000210: abc2 55bc 7181 5ebe 0e5a 203e 0349 583d
00000220: 51c0 5c3d cadf cd3d 50e5 563e b9b0 b8bc
00000230: 2e28 b8bd 50f7 d23d 0980 853e c9ac 4b3e
00000240: e682 e4bd c56c 0b3e b363 893e 1518 f73d
00000250: 8f6d 453e 69ae 023e 4a78 583e 855d dfbd
00000260: 0810 d33d 18d3 11bd e5ab 6b3e 1a39 403e
00000270: 32a8 083e 2df3 423e 8f96 f73d e06a 733d
00000280: 7bb5 ab3d 3226 883e 3333 563d 274f c13d
00000290: 5963 c5bd eb69 533e f7fd 023e cec4 423e
000002a0: 311c 6d3e 86cd 0d3e 7931 95bc 7282 c23d
000002b0: 114c a93c 4f1a 053e 0d89 cb3d 9c3a bc3d
000002c0: 1785 d1bc 9bdb 933b ebb1 e3bd aeac bd3d
000002d0: e2b5 6fbe c98b bb3d 03f8 4e3e 7ff2 b2bc
000002e0: 32b6 33be 9dc1 0bbe f35f 3bbc 48e8 363e
000002f0: 7eb3 673e 354d 153e 8904 1b3d 3915 183d
00000300: 0d45 c2bd 402b d33d 5d12 913e 47c9 eebd
00000310: 0773 a23e dfcb edbd 0f5d 3ebe 1186 743d
00000320: d7c7 e0bd 1e6f 273c 8d5b 0a3c 8719 fd3d
00000330: b761 cabd 12e7 1ebd 8922 e0bd 93c1 013e
00000340: 7c2b 823c d9da aa3d a41f 57be 2180 53be
00000350: 3bbb 333e f2d2 e03d 81db 383d b89d 15be
00000360: d48b 343e 365e 88bd b3d9 ef3d 52a1 683e
00000370: 3178 c73e d462 f13d 2390 263e 6dc8 1dbd
00000380: 0d26 683d 9306 be3d 1406 a83e 7746 693e
00000390: 50ac 113e 6f1e 3c3d b479 833c 7d71 823e
000003a0: 5c67 17be 5e7f af3d 19fc 7a3e 80fd 0e3d
000003b0: 7e53 95be 50a8 ddba 7096 0fbe a3b1 5bbe
000003c0: 507d 433e ad0b 0b3e 4378 6d3c 744c 27be
000003d0: 8bc0 933e 23db 7a3e ee48 f73d ac85 0fbe
000003e0: 6152 0a3e 0b0f ff3d 9a94 70bd 2a51 edbc
000003f0: 833f 883e 246f 9b3e 524b c1bb dc4c de3d

w2a f4 [64, 1]
-0.1547966 -0.11692406 0.3585262 0.21454594 -0.23339558 -0.107818685 0.45745316 -0.13516155
0.016051652 0.021079848 0.41460204 -0.124553815 -0.52223325 0.27340886 0.50652385 -0.15754882
-0.08517579 -0.016170943 0.2047675 -0.2529165 -0.24798663 0.28796792 0.4064559 -0.19527285
0.35599494 -0.59505916 0.31610316 0.30131432 0.34963262 0.33180398 -0.15340516 0.24762431
-0.24964102 0.2499074 0.26536077 -0.24296764 -0.05596857 0.20215762 0.26556665 -0.29072183
0.42664304 0.14847495 -0.16375922 -0.16373368 0.1979706 0.21253727 0.5894426 -0.42202473
-0.17153108 -0.1424111 -0.1820535 0.10966764 -0.20127562 -0.15454374 -0.22704768 -0.2664027
-0.048059687 0.1858932 -0.06333964 0.2511371 -0.1713302 -0.1361908 0.14234918 -0.23356363
00000000: 0083 1ebe e275 efbd bf90 b73e eeb1 5b3e
00000010: 40ff 6ebe 0bd0 dcbd 4d37 ea3e ca67 0abe
00000020: c17e 833c a5af ac3c b846 d43e 1216 ffbd
00000030: 14b1 05bf 3ffc 8b3e 8cab 013f 7a54 21be
00000040: a570 aebd ed78 84bc 92ae 513e 467e 81be
00000050: 35f0 7dbe 8870 933e fd1a d03e 9bf5 47be
00000060: f844 b63e cc55 18bf 46d8 a13e df45 9a3e
00000070: 0c03 b33e 36e2 a93e 3e16 1dbe 3a91 7d3e
00000080: e5a1 7fbe bae7 7f3e 5edd 873e 82cc 78be
00000090: 4d3f 65bd 6802 4f3e 5af8 873e 7ed9 94be
000000a0: f570 da3e d109 183e 7fb0 27be cda9 27be
000000b0: ceb8 4a3e 5fa3 593e b6e5 163f a013 d8be
000000c0: d8a5 2fbe 37d4 11be 3c6c 3abe 6d99 e03d
000000d0: 321b 4ebe b740 1ebe 307f 68be ef65 88be
000000e0: 3cda 44bd c95a 3e3e 37b8 81bd 0b95 803e
000000f0: 2f71 2fbe 9a75 0bbe fcc3 113e 4e2b 6fbe

w2c f4 [64, 1]
0.0815222 0.22202694 0.057187952 -0.14794827 0.031682443 0.26459956 0.00090714876 -0.16014855
-0.17999093 -0.23966989 -0.029510336 0.098104134 0.1431916 -0.04326431 0.1353081 -0.12892783
0.0768054 -0.21643998 0.1389357 0.22433525 -0.045613024 -0.08330811 0.01758523 -0.15265629
0.024012465 0.46570992 0.09029609 0.065283485 -0.036011707 0.060566988 -0.03647267 -0.10758807
0.10609028 -0.10678695 0.035394687 -0.08098805 -0.07699889 -0.043482296 0.008798788 0.016891183
0.019083101 0.26755866 0.072871506 0.15747005 -0.21288526 -0.23483299 -0.25290507 0.27114117
-0.27205518 0.13196217 -0.10550999 0.25274405 -0.18557465 0.08514718 0.13454846 0.11326983
-0.1915219 0.29264188 0.012685748 -0.060911514 0.07698703 -0.030752301 0.09292701 0.08242615
00000000: 1cf5 a63d 085b 633e ea3d 6a3d c07f 17be
00000010: 73c5 013d 9879 873e b9cd 6d3a fbfd 23be
00000020: 8b4f 38be 066c 75be a9bf f1bc d2ea c83d
00000030: d2a0 123e eb35 31bd 358e 0a3e a805 04be
00000040: 264c 9d3d 71a2 5dbe 2945 0e3e 24b8 653e
00000050: b9d4 3abd 719d aabd e60e 903c ee51 1cbe
00000060: cab5 c43c 8871 ee3e 28ed b83d 59b3 853d
00000070: 0381 13bd 1715 783d 5e64 15bd 2257 dcbd
00000080: dc45 d93d 1eb3 dabd 05fa 103d 10dd a5bd
00000090: 98b1 9dbd 7e1a 32bd cb28 103c 615f 8a3c
000000a0: 2a54 9c3c 73fd 883e a83d 953d d43f 213e
000000b0: 98fe 59be 0f78 70be c67c 81be 04d3 8a3e
000000c0: d14a 8bbe 1721 073e 9f15 d8bd ab67 813e
000000d0: 4807 3ebe a561 ae3d 12c7 093e 03fa e73d
000000e0: 511e 44be 28d5 953e e2d7 4f3c 5a7e 79bd
000000f0: 60ab 9d3d 40ec fbbc 8450 be3d 0bcf a83d
