MLP_Features/MLP_Feat_2.pth (torch, 10280 bytes, 3 tensors)

w1 f4 [30, 64]
0	0x3e02e9bf	0.1278448
1	0xbbaa129e	-0.0051902076
2	0x3d679ff0	0.056549013
3	0x3ddb3773	0.107039355
4	0xbe1184ec	-0.14210862
5	0x3e518d39	0.20464028
6	0xbd229369	-0.039691363
7	0xbd858d0a	-0.06521042
8	0xbcaf54f2	-0.02140281
9	0x3e07d043	0.1326304
10	0x3dadb844	0.084824115
11	0x3d142b67	0.036174204
12	0xbd675ce4	-0.05648507
13	0x3dc3b4eb	0.09555992
14	0x3d2a7336	0.04161378
15	0x3b455345	0.0030109447
16	0x3d971906	0.0737782
17	0x3d757c67	0.059933092
18	0x3d97e4c9	0.07416684
19	0xbdf31ce5	-0.118707456
20	0xbd71f775	-0.059073884
21	0x3d7cc925	0.061715264
22	0xbca9d64d	-0.02073207
23	0x3e05a302	0.13050464
24	0x3db4c9a4	0.088275224
25	0xbc929040	-0.01789105
26	0xbda8c245	-0.08240179
27	0x3df6761d	0.12034247
28	0xbbc2d3bf	-0.0059456523
29	0xbc5fb0f2	-0.013653027
30	0x3d84f7ae	0.06492554
31	0xbe90ed34	-0.28305972
32	0xbda36a77	-0.07979291
33	0x3da7862a	0.08179887
34	0x3e86da40	0.26338387
35	0x3d16a41c	0.0367776
36	0x3dc26980	0.09492779
37	0xbd1e7841	-0.0386889
38	0x3e10f584	0.14156157
39	0xbce2b60d	-0.0276747
40	0xbd1c107f	-0.03810167
41	0x3d9a7d40	0.07543421
42	0xbd3b20d1	-0.045685593
43	0x3da24dd8	0.07925004
44	0x3d10652c	0.035252735
45	0x3e3f740a	0.18696609
46	0xbd76e862	-0.06028021
47	0xbd7aad75	-0.061200578
48	0x3d8783ff	0.06616973
49	0xbdeadb89	-0.11467654
50	0x3bb52006	0.005527499
51	0xbd8015e5	-0.06254176
52	0xbdb06121	-0.08612276
53	0x3d2e76e3	0.042593848
54	0xbdd8f895	-0.10594288
55	0xbe16db35	-0.14732058
56	0x3cea8a1a	0.028630305
57	0x3ddbd8cc	0.1073471
58	0xbd97fa28	-0.074207604
59	0x3c9d86c8	0.019229308
60	0xbdcd233b	-0.10016485
61	0xbdd6f1e4	-0.10495356
62	0xbd8046fc	-0.06263539
63	0x3c11c855	0.008897861
64	0xbe208737	-0.1567658
65	0x3d441ca0	0.04787886
66	0xbc1e9f5a	-0.009681547
67	0x3d12d8b4	0.035851195
68	0x3d9d1e24	0.076717645
69	0xbc618dfa	-0.01376676
70	0xbd0eeed3	-0.03489573
71	0x3da3562f	0.079754226
72	0x3dc6cbfc	0.09706876
73	0x3e3c9305	0.18415459
74	0xbc7fd46f	-0.015614613
75	0x3caaf09d	0.020866686
76	0xbd0867d8	-0.033302158
77	0x3db57d7d	0.088618256
78	0xbe35bf8b	-0.17748849
79	0xbccc9d40	-0.024977326
80	0xbdec8ddd	-0.11550496
81	0xbd9e458a	-0.07728107
82	0x3dcb8b26	0.0993865
83	0x3d655d58	0.055997223
84	0x3d100c60	0.03516805
85	0x3e0b5b96	0.13609156
86	0xbd8746df	-0.066053145
87	0xbd963209	-0.07333762
88	0xbd683ab8	-0.056696624
89	0xbd8dd2c0	-0.06924963
90	0x3d13e3f3	0.03610606
91	0x3de038ab	0.109483086
92	0xbcb4b0fa	-0.022057045
93	0xbe2d9a46	-0.16953382
94	0x3dea70e3	0.11447313
95	0x3e188294	0.14893562
96	0xbda5ecc9	-0.08101804
97	0xbc0e494c	-0.0086844675
98	0x3e08ac6b	0.13347022
99	0x3d609701	0.05483151
100	0xbcc16e93	-0.023612296
101	0xbcf436ed	-0.029811347
102	0x3d8e9fb7	0.06964057
103	0x3c074466	0.008256054
104	0x3e035051	0.12823607
105	0xbd99d449	-0.07511193
106	0xbe449dd0	-0.19200826
107	0xbdcfd4d0	-0.10148013
108	0xbe5cc06b	-0.21557777
109	0xbd523557	-0.0513204
110	0x3dccd22c	0.100010246
111	0x3e55af63	0.20867686
112	0x3dd1e92a	0.10249551
113	0xbe157156	-0.14594015
114	0x3d45de3a	0.048307635
115	0xbe8fa81c	-0.28057945
116	0x3b7ca523	0.0038550578
117	0x3cc5acb6	0.024130207
118	0xbd7f6484	-0.06235172
119	0x3caf95e2	0.021433774
120	0x3dc423f0	0.09577167
121	0xbbb2b36a	-0.0054535167
122	0xbda912f6	-0.0825557
123	0xbd930f5e	-0.071806654
124	0x3bf1dc4a	0.007380997
125	0xbdc66c2d	-0.09688602
126	0x3d36c406	0.044620536
127	0xbe4aaa28	-0.19791472
128	0xbdcd9347	-0.100378565
129	0x3db74ead	0.08950553
130	0x3d5bdb20	0.05367577
131	0xbe5e2294	-0.21692878
132	0x3e46ad2e	0.19402
133	0xbdb1a6e9	-0.08674414
134	0xbd9abbe6	-0.0755537
135	0x3ddba325	0.10724477
136	0x3dab046d	0.083504535
137	0xbe0cb9de	-0.13742778
138	0xbd95f07c	-0.073212594
139	0x3e385933	0.18002777
140	0x3e1075ee	0.14107487
141	0x3dba3386	0.090918586
142	0xbccf70ef	-0.025322406
143	0x3d4f73f4	0.05064769
144	0x3d1f228e	0.038851313
145	0x3bc1e9dd	0.0059177713
146	0x3cd23daf	0.025664179
147	0x3e0f6538	0.14003456
148	0x3e0abe47	0.13549148
149	0x3c43dbf8	0.0119543
150	0xbdc51e12	-0.09624876
151	0xbc075edf	-0.008262365
152	0x3dfac7bb	0.12245127
153	0x3c8a17db	0.016857078
154	0x3cfe7b7a	0.031064738
155	0x3b83bd9a	0.004020405
156	0x3c07c852	0.008287506
157	0xbcf07c6e	-0.029356208
158	0x3dadbacd	0.08482895
159	0xbe1710c8	-0.14752495
160	0xbdd5b353	-0.10434594
161	0xbd297052	-0.041366883
162	0x3d16fac6	0.03686025
163	0xbd2c2bab	-0.042033833
164	0x3b9428e7	0.0045214775
165	0xbd6ceaf7	-0.057841267
166	0xbdcb25d2	-0.09919323
167	0x3bd67baa	0.0065455036
168	0xbdf0fe2c	-0.117672294
169	0x3e1f9944	0.1558581
170	0x3e04c1bb	0.12964527
171	0x3de29bde	0.110648856
172	0xbe054577	-0.1301478
173	0xbd2488cc	-0.040169522
174	0xbcb2de23	-0.021834439
175	0x3d75eb72	0.06003899
176	0x3e834d68	0.25644994
177	0x3d4b07ed	0.049568105
178	0xbd3cefe9	-0.046127234
179	0xbd8e13fc	-0.069374055
180	0xbd1eb6ee	-0.038748674
181	0xbca840dd	-0.020538742
182	0x3e4a13e9	0.19734158
183	0xbd05aa3a	-0.032633044
184	0x3e29a74c	0.16567725
185	0xbe261342	-0.16218284
186	0x3dc0270e	0.09382449
187	0xbcae1fa4	-0.021255322
188	0x3e217728	0.15768111
189	0xbddb9a1b	-0.10722753
190	0x3d78bf03	0.060729038
191	0xbc328856	-0.010896763
192	0xbe4ddae8	-0.20103037
193	0x3db820d1	0.08990634
194	0x3dd9c555	0.10633341
195	0x3e11ab1e	0.14225432
196	0xbdabccac	-0.083886474
197	0xbdb79cfe	-0.08965491
198	0x3d7dca5d	0.061960567
199	0xbd44081b	-0.047859292
200	0x3e21b147	0.15790282
201	0xbbb364db	-0.0054746694
202	0x3e74572f	0.23861383
203	0x3e15eca0	0.14641047
204	0xbdb5aaa4	-0.08870438
205	0xbc5fee5b	-0.013667668
206	0x3d08c87d	0.033394326
207	0xbdd34457	-0.10315769
208	0xbe29f8e8	-0.16598856
209	0x3e140d0b	0.144581
210	0x3e048208	0.12940228
211	0x3d84b158	0.06479138
212	0x3da701b1	0.081546195
213	0x3e4ed9a5	0.20200212
214	0x3d0ed3a4	0.034869805
215	0x3dc06f6b	0.09396251
216	0xbe2ca0f2	-0.16858271
217	0x3e1bf141	0.1522875
218	0xbe3ba156	-0.18323264
219	0x3b3bb494	0.0028641568
220	0xbe4312a6	-0.19050083
221	0x3beaa7cd	0.0071611167
222	0x3d280f2d	0.041030098
223	0xbe1edd7e	-0.1551418
224	0xbbc64687	-0.006050888
225	0xbd1bb6ea	-0.038016237
226	0xbdb597d2	-0.08866848
227	0xbd1c1690	-0.038107455
228	0xbdbcd343	-0.092199825
229	0xbe36a84c	-0.17837638
230	0x3e0db7be	0.13839623
231	0x3d99bb0f	0.07506382
232	0xbc99111f	-0.018684922
233	0x3d0f47a0	0.034980416
234	0xbe3e9b27	-0.18613873
235	0xbb13dfc7	-0.0022563802
236	0xbc9dc605	-0.019259462
237	0x3d8999ba	0.06718774
238	0x3d92492f	0.07142865
239	0x3e47675d	0.19473024
240	0x3c5c2c9f	0.013438373
241	0xbd3a13de	-0.045429103
242	0xbe1b6b19	-0.15177573
243	0xbd0b4b14	-0.034007147
244	0x3e47c6e7	0.19509469
245	0xbd3768f5	-0.04477783
246	0x3dfafdc7	0.122554354
247	0x3e45a982	0.19302943
248	0x3e13ba96	0.14426646
249	0xbe175660	-0.14779043
250	0x3dc2625e	0.09491418
251	0xbd90abc9	-0.070640154
252	0xbd61983b	-0.05507682
253	0x3d33b722	0.04387582
254	0xbe28d87f	-0.16488837
255	0x3e5e9dfa	0.21739951

w2a f4 [64, 1]
0	0x3d47953f	0.048726317
1	0xbcd4d6f8	-0.025981411
2	0x3dae582b	0.085129105
3	0xbdfe16ab	-0.12406667
4	0xbc322c4b	-0.010874818
5	0x3e815cee	0.25266212
6	0xbe83b337	-0.25722668
7	0xbbbc33d4	-0.005743483
8	0xbe960e7d	-0.2930793
9	0xbdbc701f	-0.09201073
10	0xbe286262	-0.1644378
11	0xbe5e86c5	-0.21731098
12	0x3e8b5c58	0.2721889
13	0x3dc00c5e	0.09377359
14	0x3dbe7bb8	0.09300941
15	0xbde12ac8	-0.10994488
16	0x3c9be228	0.019028738
17	0xbe4c0959	-0.19925441
18	0xbe68d73f	-0.2273836
19	0xbd93d927	-0.07219153
20	0xbe1dd5d5	-0.15413602
21	0xbe0c11c8	-0.13678658
22	0xbc0c8dc2	-0.00857872
23	0xbe454e4e	-0.19268152
24	0xbe455c77	-0.19273554
25	0xbda99169	-0.08279688
26	0x3e3002a0	0.17188501
27	0xbe265c18	-0.16246068
28	0xbe3f51b3	-0.1868351
29	0x3e0a06c3	0.13479142
30	0xbd88fa46	-0.06688361
31	0xbe3c5f80	-0.18395805
32	0x3d8d451b	0.068979464
33	0x3d51ffd3	0.051269364
34	0xbe0d422f	-0.13794778
35	0x3dfad406	0.122474715
36	0x3d4aa55e	0.049474113
37	0xbea2edec	-0.31822145
38	0x3e336edd	0.1752276
39	0x3e51ef8f	0.2050154
40	0xbd5659be	-0.05233168
41	0xbde75ef3	-0.11297407
42	0x3de93eae	0.11388908
43	0xbe897b83	-0.26852044
44	0x3eb864ac	0.36014307
45	0xbd6ed6a1	-0.058310155
46	0xbe2e9c88	-0.170519
47	0xbeba2786	-0.3635828
48	0xbe13fcdd	-0.14451928
49	0xbe2fd881	-0.17172433
50	0xbdcb2fae	-0.099212036
51	0x3def8198	0.1169464
52	0xbead378b	-0.33831438
53	0x3e5ba0fe	0.21448132
54	0xbe96967d	-0.29411688
55	0xbd9cf881	-0.07664586
56	0xbea76cb4	-0.3270012
57	0x3de20abd	0.110372044
58	0x3e6bc8d6	0.23025832
59	0x3e0340de	0.12817714
60	0xbe0a693e	-0.13516709
61	0xbe11b7db	-0.14230292
62	0x3d6a2dbb	0.05717252
63	0xbe9639d2	-0.29340988

w2c f4 [64, 1]
0	0x3da39510	0.07987416
1	0x3e442a91	0.19156863
2	0xbe48810c	-0.19580477
3	0x3e5592cf	0.20856784
4	0xbdc207a7	-0.09474116
5	0x3dba61c1	0.09100676
6	0xbe40d417	-0.18830906
7	0x3e0c48f6	0.13699707
8	0xbdce3dce	-0.10070382
9	0xbdee0f9d	-0.11624072
10	0xbe0a8f39	-0.13531198
11	0xbd6093f6	-0.054828607
12	0x3d9078a9	0.07054264
13	0x3e067df0	0.13133979
14	0x3b725e75	0.003698257
15	0x3df61144	0.12015012
16	0xbe564088	-0.20923054
17	0x3e122078	0.14270198
18	0xbe068b06	-0.1313897
19	0xbe150058	-0.14550912
20	0xbdd8d5dc	-0.105876654
21	0x3e035aeb	0.12827651
22	0xbe52f0d1	-0.20599677
23	0xbcbfa52f	-0.023394195
24	0xbdd06049	-0.10174615
25	0xbd918173	-0.071047686
26	0xbe0e5621	-0.13900043
27	0xbe377ad0	-0.17917943
28	0xbc0691a9	-0.008213439
29	0x3d85283d	0.065018155
30	0xbe30403b	-0.17212002
31	0x3cd78746	0.02630962
32	0xbda262e5	-0.07929019
33	0x3af6d64f	0.001883218
34	0xbd64a2a8	-0.055819184
35	0x3c24f1e8	0.010067441
36	0xbdecef83	-0.11569121
37	0xbd9f6f05	-0.07784847
38	0x3db46649	0.08808572
39	0xbccb7c66	-0.024839591
40	0xbe2fbcb1	-0.17161824
41	0x3e603aee	0.2189748
42	0x3e2fdba5	0.17173631
43	0x3d4e4ed2	0.050368138
44	0x3de2daaf	0.11076867
45	0xbd81739f	-0.06320881
46	0xbda01e4d	-0.078182794
47	0xb93a3f22	-0.00017761861
48	0x3e15db6d	0.14634486
49	0xbdbf0412	-0.09326948
50	0xbeb70256	-0.3574397
51	0x3dc07102	0.093965545
52	0x3d24934e	0.040179543
53	0xbd1b44f4	-0.037907556
54	0x3d221915	0.0395747
55	0xbd8acba8	-0.067771256
56	0x3da05572	0.078287974
57	0x3d408575	0.047002275
58	0x3ceca156	0.028885525
59	0x3e418046	0.18896589
60	0xbdea41a8	-0.11438304
61	0x3e5e8069	0.21728672
62	0x3e864e5a	0.26231652
63	0x3dd73959	0.10508985
