MLP_Features/MLP_Feat_15%ret.pth (torch, 10280 bytes, 3 tensors)

w1 f4 [30, 64]
0.02027473 -0.08414713 -0.040458594 -0.05133443 -0.030663313 0.046484668 0.056648888 -0.051410805
-0.057995968 -0.10620515 0.009771565 -0.066047624 0.015066621 0.01976924 0.14486498 0.041287895
0.05380964 -0.08855665 -0.028473916 -0.087504566 0.1300193 -0.14208846 0.05128551 0.057762567
0.10489804 0.13061742 0.038060036 -0.06961992 0.03926909 -0.14781488 -0.012565866 0.060127024
-0.042667057 -0.2416963 0.04164034 0.026165746 0.00689317 -0.009541691 -0.043776188 -0.038340267
-0.088329405 0.1694558 0.05043727 0.077385716 -0.007428266 0.12875827 0.10403153 -0.036239285
-0.06978402 0.12533395 0.14275622 0.055194285 0.0073103006 0.0035327442 -0.17500733 -0.073296264
-0.044300564 0.081344135 0.16824451 -0.07180209 0.0012419034 0.012667196 0.081664845 -0.043769155
-0.0890603 -0.10129384 -0.029050652 -0.229175 -0.03865707 -0.016354505 -0.04414897 -0.090535045
0.18392584 -0.008138368 0.017063983 -0.08720546 -0.012517905 0.14112899 0.032710854 -0.18759856
-0.10501733 0.037371043 0.028396219 -0.05023198 0.15158768 -0.14280419 -0.0060888873 0.08147718
-0.050728567 -0.06689226 0.0061584613 -0.05640586 -0.19840474 -0.004729646 -0.10453505 -0.036675915
0.24083331 -0.010270136 0.07988488 -0.11724396 0.014725924 -0.050796438 -0.2097699 -0.022341706
-0.041117564 0.05383975 -0.00088575296 0.049782045 0.08264259 -0.028602129 -0.03387375 0.029344793
0.1438153 0.07172299 -0.027591914 0.009588491 -0.08561286 -0.19865076 0.065272756 -0.12112919
-0.12687947 0.086670585 -0.10373505 -0.03503734 -0.09249462 -0.12094079 -0.29739597 0.22020118
-0.072140254 0.12219668 -0.20412235 -0.103427544 0.011044741 0.0061165546 -0.053705472 -0.11388666
0.0755484 -0.091599956 0.045264665 -0.09507115 -0.00498428 -0.015356103 0.0928321 0.17439266
0.1915045 0.059335288 -0.21964274 0.047915906 -0.1550737 0.2875091 0.10168625 -0.13681923
0.015681349 -0.061731216 0.025375634 -0.10740228 0.0609625 0.110122785 0.116061434 -0.03259264
-0.015759528 0.0257006 0.11400034 0.037031926 -0.006433443 0.110852286 0.15656844 0.0030016773
0.15750806 -0.097910285 0.11243443 -0.019661117 -0.16594821 0.070498526 0.013702959 0.020167178
0.059963997 0.06426125 -0.08704773 0.004809001 0.026885306 0.082024105 0.15897913 0.1579222
0.21624015 0.04847198 0.038017776 0.056976087 -0.055389788 0.10243808 0.124198996 0.06398224
-0.24704409 0.097631946 -0.014492686 0.024485378 -0.12420936 -0.0039634244 0.0208699 -0.011848842
0.048421692 -0.12510839 -0.029937001 -0.1720563 -0.053831954 -0.03322341 -0.050625525 -0.0055339085
-0.020290826 0.10096603 -0.0014069439 -0.071634114 0.003255912 -0.099471435 0.16801645 0.14603749
0.18153186 0.08223425 0.13764596 -0.15344977 0.05162886 -0.13674761 0.1315619 -0.13930245
0.044776276 0.14107907 0.053311646 0.12167681 0.0006255637 -0.010195241 0.01329209 0.11808749
-0.11240829 -0.12877487 0.16306855 0.050149735 0.21208967 0.09162438 0.11383687 0.114685975
0.050836485 -0.074468106 -0.017350009 0.12732935 0.13635378 -0.15646534 -0.0535688 -0.113159224
0.026206229 0.0018597392 0.2397943 -0.16472495 -0.021596823 -0.123532414 -0.036870066 -0.12170992
00000000: 3117 a63c 5555 acbd e9b7 25bd 0d44 52bd
00000010: a131 fbbc b566 3e3d aa08 683d 2394 52bd
00000020: 2e8d 6dbd 1682 d9bd ea18 203c fa43 87bd
00000030: fdd9 763c 1af3 a13c 7c57 143e 7f1d 293d
00000040: 7f67 5c3d 305d b5bd 2142 e9bc 9835 b3bd
00000050: c823 053e a37f 11be c110 523d 7198 6c3d
00000060: c9d4 d63d 93c0 053e d7e4 1b3d e394 8ebd
00000070: a0d8 203d c95c 17be 10e1 4dbc c147 763d
00000080: a7c3 2ebd 3c7f 77be 108f 2a3d 8c59 d63c
00000090: 1ae0 e13b c154 1cbc a94e 33bd af0a 1dbd
000000a0: 0ce6 b4bd d285 2d3e 5097 4e3d 677c 9e3d
000000b0: d068 f3bb 35d9 033e 7c0e d53d a56f 14bd
000000c0: edea 8ebd 8b57 003e b02e 123e 6713 623d
000000d0: 3f8b ef3b 9d85 673b 1f35 33be 5a1c 96bd
000000e0: 8274 35bd c197 a63d 4a48 2c3e f90c 93bd
000000f0: 5dc7 a23a 128a 4f3c e63f a73d 4947 33bd
00000100: 3f65 b6bd 2573 cfbd a2fb edbc daac 6abe
00000110: e056 1ebd e2f9 85bc 8dd5 34bd 706a b9bd
00000120: 0e57 3c3e ca56 05bc c4c9 8b3c c798 b2bd
00000130: e617 4dbc 1e84 103e d1fb 053d d619 40be
00000140: 5313 d7bd 6112 193d 309f e83c 0cc0 4dbd
00000150: cd39 1b3e 433b 12be 4a85 c7bb 82dd a63d
00000160: c2c8 4fbd cffe 88bd ebcc c93b d509 67bd
00000170: 9d2a 4bbe 25fb 9abb 7916 d6bd 7c39 16bd
00000180: 029d 763e 1344 28bc af9a a33d 9a1d f0bd
00000190: 0045 713c ed0f 50bd eccd 56be f405 b7bc
000001a0: e46a 28bd 1287 5c3d e031 68ba 42e8 4b3d
000001b0: 8540 a93d 034f eabc 34bf 0abd 7e64 f03c
000001c0: 5144 133e 81e3 923d 7008 e2bc 0c19 1d3c
000001d0: cc55 afbd 1b6b 4bbe b9ad 853d 9512 f8bd
000001e0: b1ec 01be 5980 b13d 0b73 d4bd 5083 0fbd
000001f0: d26d bdbd ceaf f7bd 4944 98be 6b7c 613e
00000200: 45be 93bd 4142 fa3d 7305 51be d2d1 d3bd
00000210: 00f5 343c 616d c83b 45fa 5bbd 693d e9bd
00000220: 1fb9 9a3d c298 bbbd 7167 393d aab4 c2bd
00000230: 2c53 a3bb 2a98 7bbc c21e be3d fd93 323e
00000240: c119 443e 8f09 733d 07ea 60be 7843 443d
00000250: a4cb 1ebe 6534 933e e140 d03d 571a 0cbe
00000260: 2c76 803c dfd9 7cbd 90e0 cf3c baf5 dbbd
00000270: d0b3 793d 0e88 e13d 9eb1 ed3d dc7f 05bd
00000280: 201a 81bc 118a d23c 0379 e93d caae 173d
00000290: a2cf d2bb 8606 e33d 7a53 203e cab7 443b
000002a0: cb49 213e 3085 c8bd 0644 e63d 5a10 a1bc
000002b0: 54ee 29be 8861 903d 6082 603c a335 a53c
000002c0: cf9c 753d 679b 833d 1546 b2bd d394 9d3b
000002d0: 933e dc3c 41fc a73d 6dcb 223e 5bb6 213e
000002e0: 0f6e 5d3e 8e8a 463d 87b8 1b3d c25f 693d
000002f0: 67e0 62bd 0ecb d13d 0b5c fe3d 1f09 833d
00000300: 20f9 7cbe 42f3 c73d bb72 6dbc 8f95 c83c
00000310: 7a61 febd 9ddf 81bb 5af7 aa3c a521 42bc
00000320: d355 463d 6a1c 00be 713e f5bc 872f 30be
00000330: e57e 5cbd 4515 08bd b65c 4fbd ca55 b5bb
00000340: f238 a6bc 47c7 ce3d 3469 b8ba e8b4 92bd
00000350: 2461 553b aeb7 cbbd 810c 2c3e da8a 153e
00000360: 7de3 393e 6e6a a83d 10f3 0c3e f021 1dbe
00000370: c978 533d 9107 0cbe 2ab8 063e 4da5 0ebe
00000380: 5467 373d 0877 103e 505d 5a3d b131 f93d
00000390: dffc 233a f109 27bc 11c7 593c dbd7 f13d
000003a0: 5136 e6bd 8fdd 03be 71fb 263e cf69 4d3d
000003b0: 092e 593e 90a5 bb3d 4e23 e93d 7be0 ea3d
000003c0: eb39 503d bc82 98bd 9b21 8ebc a062 023e
000003d0: 53a0 0b3e 7338 20be f56a 5bbd 06c0 e7bd
000003e0: 72ae d63c 7ec2 f33a a38c 753e a8ad 28be
000003f0: d2eb b0bc 90fe fcbd 1105 17bd 0d43 f9bd

w2a f4 [64, 1]
0.13390844 0.077828266 -0.10100433 -0.23979491 0.27119517 -0.10300115 -0.17263784 0.09930702
0.1133825 0.13856164 0.056383822 0.00953952 -0.09713097 0.068420455 0.19626836 0.2631854
0.34055176 -0.12867285 0.15106963 0.20428209 -0.0088628745 0.29790205 -0.009761829 0.09331553
0.22068465 0.036627047 0.029263347 -0.028650144 -0.068897404 0.19262962 0.20504414 -0.122471936
0.04495349 0.4906159 0.12735473 0.22266018 -0.21621872 0.15479666 0.32210523 -0.15595461
0.21682982 0.079730116 0.36817208 0.082533784 -0.25860518 0.11991236 0.10751732 -0.24541855
0.26937538 -0.17262867 -0.060789574 -0.018626321 -0.14146028 0.26976007 0.30605152 0.2508578
0.24991585 0.04098429 0.24780838 0.36929202 -0.08779449 -0.12855569 0.23836553 0.10585098
00000000: 4b1f 093e 6d64 9f3d 5cdb cebd cc8c 75be
00000010: 18da 8a3e 44f2 d2bd f9c7 30be 7b61 cb3d
00000020: 1635 e83d 1ae3 0d3e b9f2 663d a64b 1c3c
00000030: 9aec c6bd 0620 8c3d 93fa 483e 3dc0 863e
00000040: cd5c ae3e d1c2 03be ffb1 1a3e 532f 513e
00000050: 9735 11bc 9e86 983e 14f0 1fbc 361c bf3d
00000060: 28fb 613e 3e06 163d b0b9 ef3c b5b3 eabc
00000070: 151a 8dbd b340 453e 17f7 513e 91d2 fabd
00000080: 2721 383d 0232 fb3e 4769 023e 0801 643e
00000090: 7168 5dbe 0483 1e3e faea a43e 91b2 1fbe
000000a0: a308 5e3e 8b49 a33d 0d81 bc3e 7907 a93d
000000b0: e667 84be 9d94 f53d 0a32 dc3d 004f 7bbe
000000c0: 92eb 893e 92c5 30be 7dfe 78bd 3a96 98bc
000000d0: f7da 10be fe1d 8a3e c9b2 9c3e 6f70 803e
000000e0: f1e9 7f3e 25df 273d 7bc1 7d3e d813 bd3e
000000f0: 99cd b3bd 1aa4 03be 1816 743e 66c8 d83d

w2c f4 [64, 1]
-0.06902031 0.0393257 0.13188191 0.08516923 0.04879376 0.05683887 0.17639913 -0.2557165
-0.13340418 0.04452269 0.10720327 0.26896715 0.04363982 -0.20970592 -0.06421077 -0.04650723
0.035638507 0.22849238 -0.023378741 0.027106112 -0.15306559 0.08167946 -0.12653331 -0.10109715
0.10223799 -0.03514512 0.034829717 -0.119366564 0.14895666 0.19801895 -0.09537811 0.2393551
-0.15838194 -0.09679871 0.049326733 -0.09897948 0.19579785 0.07218868 -0.10618601 -0.22281983
-0.054363467 -0.071898304 0.053722955 -0.087584645 -0.060155332 -0.0804462 -0.054902256 -0.18106006
-0.12479396 0.034603775 0.10886612 0.10338614 0.13012348 -0.015434898 -0.13101155 -0.06776271
0.06942626 -0.036280457 0.07973286 -0.0014784905 0.0366908 -0.066204496 0.16950956 -0.22753647
00000000: 855a 8dbd fc13 213d 0d0c 073e 356d ae3d
00000010: f7db 473d e0cf 683d f9a1 343e 46ed 82be
00000020: 1b9b 08be 6d5d 363d 638d db3d 10b6 893e
00000030: abbf 323d 26bd 56be f080 83bd 5d7e 3ebd
00000040: aff9 113d e8f9 693e c684 bfbc a30d de3c
00000050: 3abd 1cbe 9047 a73d f391 01be 060c cfbd
00000060: 2762 d13d 54f4 0fbd 9ba9 0e3d 7576 f4bd
00000070: 1888 183e 7bc5 4a3e 9955 c3bd 8119 753e
00000080: e02e 22be 673e c6bd d40a 4a3d c1b5 cabd
00000090: 3b7f 483e a9d7 933d 0d78 d9bd e22a 64be
000000a0: 3aac 5ebd 6b3f 93bd 9a0c 5c3d 945f b3bd
000000b0: 7065 76bd fac0 a4bd 30e1 60bd cf67 39be
000000c0: fa93 ffbd b0bc 0d3d 33f5 de3d 1dbc d33d
000000d0: 173f 053e a8e2 7cbc e427 06be 2dc7 8abd
000000e0: 5b2f 8e3d d19a 14bd fb4a a33d e9c9 c1ba
000000f0: 1849 163d 3996 87bd ea93 2d3e 52ff 68be
